Client/bridge_agent_v1.pth (torch, 336677 bytes, 6 tensors)

layer1.0.weight f4 [200, 290]
000000 4d 0c 83 ba 73 ac 8b 3c 61 91 35 3d 4c 67 98 3d
       -0.0009998173 0.017050004 0.044328097 0.07441577
000010 7a 09 a2 3b b8 66 5d bb 43 40 9c bc f7 72 e3 3c
       0.0049449774 -0.003378315 -0.019073611 0.02776478
000020 ae 6e 91 bc bb d1 5c bc 3d 20 2f 3d 47 42 42 bd
       -0.017752972 -0.013477738 0.042755354 -0.04742649
000030 6e c4 53 3c 14 21 e3 bc a9 c5 ff bc bc 4b fc bc
       0.01292525 -0.027725734 -0.031222181 -0.030797832
000040 d3 ec de 3c 85 36 02 bd 67 c1 11 3d 56 2b 75 ba
       0.027212536 -0.031790275 0.035584833 -0.0009352466
000050 ea bf 1a bd fc 41 58 bc a8 51 0a 3d 38 27 b6 bc
       -0.03778068 -0.013199326 0.03376928 -0.022235498
000060 9e 0b 61 3d 54 cb 94 3d 1d 48 ab 3d 7c 7c 22 bd
       0.05494272 0.07265344 0.08363364 -0.0396695
000070 6c 95 ca ba 85 8c eb 3c d4 96 11 3d 26 dd dd bd
       -0.0015455908 0.028753528 0.03554423 -0.10833196
000080 31 31 d9 3c a3 38 bb bd 54 83 1d be 98 be 67 3c
       0.026512714 -0.09141662 -0.15382129 0.014144562
000090 d7 40 98 3d 65 67 ed 3c ac bf 3c bd c5 e8 77 3c
       0.07434242 0.028979966 -0.04608123 0.01513118
0000a0 c4 0d 0a be d4 75 88 3e c0 f2 63 3d 04 1b be bd
       -0.13481814 0.26652396 0.055651426 -0.092824966
0000b0 92 09 29 3e df 05 a0 3b 16 64 a1 bd 0f a8 0a bb
       0.16507557 0.0048835124 -0.07880418 -0.00211573
0000c0 06 36 0f 3d e5 e2 56 3e 74 c8 9f bd 77 93 aa bc
       0.03496363 0.20984991 -0.07801905 -0.02082227
0000d0 22 e3 19 bd 75 88 95 3d 75 39 e0 3c 5f b1 89 bc
       -0.037570126 0.07301418 0.027371148 -0.01680821
0000e0 72 62 76 3d 7e c7 31 3e 54 37 9a 3d 85 64 37 bc
       0.06015248 0.17361256 0.07530084 -0.011193399
0000f0 28 1a b6 bd 5e 9b bc bd 3a 9e 9f bd 00 d2 a8 3e
       -0.08891708 -0.092093214 -0.07793851 0.32972717
000100 bb c6 95 3d b2 64 76 be d0 c5 31 bd 9b af 42 3e
       0.073132955 -0.2406185 -0.04340154 0.190123
000110 70 d0 da 3c 33 3a eb bd ff be f9 bc b5 7c 54 3e
       0.026710719 -0.1148571 -0.030486582 0.20750697
000120 8b ef 06 bd 92 73 e6 bd c9 5e 95 3b 90 af 84 3d
       -0.03294329 -0.11252512 0.0045584184 0.064787984
000130 32 24 ee 3a 29 97 c9 37 52 db 3c 3e 92 43 9b 3b
       0.0018168746 2.4031457e-05 0.18443039 0.0047382796
000140 6c e6 2f 3d 68 fb 1b be 3c 40 21 bd d6 b1 36 3c
       0.042944357 -0.15232623 -0.0393679 0.011150798
000150 71 f3 dd 3c 35 5c 2e 3d a6 8d f4 bb 7f 13 5b 3c
       0.027093621 0.042568404 -0.007463175 0.013371347
000160 ea 41 5f 3d 95 a8 1b bd 76 45 24 3d 7c 72 1c 3c
       0.05450622 -0.03800257 0.040105306 0.00954878
000170 21 6f 0a bc d2 5f 68 bd 60 2e ff 3a 1e 88 9f 3d
       -0.008449347 -0.056732006 0.0019468777 0.07789634
000180 09 97 94 bd 37 6e 7d 3d 85 18 ae bc 2a cd 59 3d
       -0.0725537 0.061872687 -0.021251926 0.053174175
000190 5f bf 62 bc 5c 2c 8d bd c5 60 90 3d 2c de 53 3d
       -0.013839572 -0.068932265 0.07049707 0.05172555
0001a0 88 b7 1f bc 3d c7 fe 3b 9e f2 c3 3c f7 7e 30 bb
       -0.009748347 0.007775216 0.0239194 -0.0026931146
0001b0 61 6e 59 bd 8e 86 c6 bc b5 ca fd 3c 0f 7c 15 3d
       -0.05308378 -0.024234083 0.030980447 0.036495265
0001c0 7d 6d ca 3c 07 06 82 3c ff 0b 70 3c 23 2b 96 bd
       0.024710411 0.015872015 0.014651298 -0.073324464
0001d0 e9 ac 91 3d ce ee 35 3d 3d dc b0 bc b6 de db bc
       0.07113058 0.044417195 -0.021589393 -0.026839595
0001e0 ae 44 69 bb de a4 85 3c c0 16 95 3b 9f c3 81 bd
       -0.0035593915 0.016313966 0.004549831 -0.0633614
0001f0 3c 29 18 3d 09 53 81 3d 0e 0e 30 3d 69 e0 e8 bc
       0.0371487 0.06314666 0.042982154 -0.02842732
000200 56 31 8f 3b e5 f6 2b 3d 6d 9b e6 3c 3c 4b 60 3d
       0.004369895 0.041983504 0.028150285 0.05475925
000210 9d 89 1d 3b 33 97 d0 3d 4e 12 10 bc 1b b1 eb 3c
       0.0024038323 0.10185089 -0.008793427 0.028770974
000220 e8 ed dd bc 50 ce 35 3d 1f 3f 4c 3d 15 71 e0 3b
       -0.027090982 0.044386208 0.049864884 0.006849418
000230 a4 1e b7 bc dc e7 b0 bc fa 62 73 bc 41 6f 35 3c
       -0.022353478 -0.021594934 -0.014855141 0.011073888
000240 87 f4 b5 3d 0c 10 0c be 1d 57 91 3d 1f ae 73 3d
       0.088845305 -0.13677996 0.07096694 0.059492227
000250 03 c9 95 bd 23 45 9c 3c 0a 55 35 3c 11 81 69 3c
       -0.073137306 0.019075936 0.011067638 0.014251963
000260 5f 32 f6 bc a5 a1 d7 bd b2 a2 a3 3d 4e 01 45 bc
       -0.030053316 -0.10528878 0.07990016 -0.012024237
000270 65 4d cd 3c 91 bc 15 bd e2 be 1d bc 2a 11 fe 3b
       0.025061319 -0.036556784 -0.00962803 0.007753511
000280 74 39 04 3d df 55 0b bd c0 08 48 bd 68 43 a1 bb
       0.032281354 -0.03401744 -0.04883647 -0.0049213655
000290 a4 b5 2e 3c 97 5c 7a 3c 66 13 fc 3d ad 27 19 be
       0.010663424 0.015280864 0.123083875 -0.14956541
0002a0 ac bc ef bc 8a ff 10 3e 5f fd 97 3c c4 09 e5 bd
       -0.02926477 0.1415998 0.018553434 -0.11183503
0002b0 27 d6 5b 3b 7c 8e 9d 3d e0 8e 0b bd 25 d9 ff bd
       0.0033544393 0.07693192 -0.034071803 -0.12492589
0002c0 f4 a5 e8 bc 18 0b 41 3c d4 93 f8 3c 01 71 cc bb
       -0.028399445 0.01178243 0.030343927 -0.006239057
0002d0 97 8c 88 bd b8 1a 61 bc 4a b3 a8 bd 98 df 92 3c
       -0.066674404 -0.01373928 -0.08237322 0.017928883
0002e0 c6 55 2d bd e0 56 e7 3d 42 29 26 bd ac 9a 95 3b
       -0.042318128 0.11295867 -0.04056669 0.0045655575
0002f0 93 ff e1 3c ed 20 c5 3c a3 ef b8 3d c2 5e 0d 3d
       0.027587688 0.024063552 0.09030082 0.034514196
000300 b1 37 bb bb b1 14 28 3c ed a2 77 3d 45 ff a8 b9
       -0.005713426 0.0102588395 0.060458113 -0.00032233648
000310 f0 a0 ce 3d b9 22 b1 bd 55 d6 31 3d 84 05 b9 3d
       0.1008929 -0.08649201 0.043417294 0.09034255
000320 57 29 4c 3c 2e 93 5d 3c 75 46 a5 3c 30 37 af 3d
       0.012461028 0.01352386 0.020175198 0.08555448
000330 e4 2f 0c 3c e7 f9 cf bc 01 3f 2e 3d 66 70 cd 3c
       0.00855634 -0.025387717 0.042540554 0.02507801
000340 62 f6 ac bb d9 25 10 3d 38 91 2f 3d 4a ec 2b 3d
       -0.0052783946 0.035192344 0.0428631 0.04197339
000350 12 01 5b bb b9 58 1d 3d 3b b7 48 3c 88 34 9e bc
       -0.0033417386 0.03841469 0.012250717 -0.019312158
000360 da 08 e3 3d 34 73 5b 3d 4e 9d c7 3d 11 f2 4d bd
       0.11085673 0.053576663 0.097468 -0.05027968
000370 18 c0 d2 3c a3 81 1d 3e 8b 53 70 3c 2c 32 aa bc
       0.025726363 0.15381484 0.014668356 -0.020775877
000380 6e 82 a3 3b 25 f4 0c 3d 85 f0 de bc 7d 30 4b bd
       0.0049899137 0.034412522 -0.027214298 -0.04960679
000390 07 e4 58 3d 27 f9 e6 3d 00 24 83 3d fb 41 40 3c
       0.05295184 0.11277991 0.06403351 0.011734481
0003a0 ba 2a cd bc a1 2e ca 3c ba 16 51 bd d7 f1 97 3c
       -0.025044788 0.024680438 -0.051047064 0.018547935
0003b0 17 cf 37 3d 80 eb de 3d b6 6e 46 bc d6 22 91 3b
       0.04487523 0.10884762 -0.0121113565 0.0044292016
0003c0 9c 09 3f 3d 8c d3 5c 3d 8f 3b 3a bb ab 0b c6 3c
       0.046640024 0.053912684 -0.0028416847 0.024175486
0003d0 8e 1a ac 3c fc f9 0f bd 1d 80 a4 bb ca 9d 28 bd
       0.021008756 -0.035150513 -0.005020155 -0.041166104
0003e0 5b 93 dd 3c 7b 66 ac bd 86 19 2b be 86 62 62 3d
       0.027047804 -0.08417984 -0.16708955 0.05526974
0003f0 20 48 9c 3d 79 c1 06 bc 6b db 84 3d 76 9b 98 3c
       0.07630944 -0.008224838 0.06487163 0.018628817

layer1.0.bias f4 [200]
000000 45 74 c0 3c 99 5b ee 3c da 17 b1 3d e5 6a 8d 3c
       0.023492942 0.029096412 0.086471274 0.017262885
000010 ba a5 d6 3c 50 b4 fb ba 7f d8 09 3c 5a 01 8e 3d
       0.026202071 -0.0019203518 0.008413433 0.069338515
000020 73 2e c5 3c cc 0e 52 3d 33 53 82 3c 06 ee cc 3d
       0.02407 0.051283643 0.015908813 0.10006337
000030 ed 0c 48 bc 6e 55 8a 3c b3 3e 64 3c 20 14 84 3d
       -0.012210113 0.01688644 0.013930964 0.06449151
000040 97 48 93 3d 5c f1 0c 3d 12 41 01 3d ec d0 be 3d
       0.0719158 0.034409866 0.031556197 0.093171924
000050 f4 fa b6 3c 1c 36 41 3b 6d eb 7a 3d ea 40 a4 3d
       0.02233646 0.0029481715 0.061259676 0.08020194
000060 5a 3e 0e 3b 2e 44 2a 3c b5 c5 16 3c 7b 98 70 3d
       0.0021704645 0.010392232 0.0092024105 0.058739167
000070 c1 db da 3d 89 e7 a5 3c 51 66 99 3b 7f c4 09 3e
       0.10686446 0.020252006 0.0046813865 0.13453864
000080 82 6a d2 3d 19 6e 82 3d 55 6b b3 3d dd d1 a3 3d
       0.10274221 0.06368656 0.08760706 0.079990126
000090 f3 9f 97 3d 4f 3d 9b 3d b4 ac 2d 3c a4 57 43 3b
       0.07403555 0.07580053 0.010600258 0.0029806877
0000a0 6d 38 47 3c 6e fb 65 3d cd 9e 8c 3d 57 2e 54 bd
       0.012159449 0.056147985 0.06866226 -0.051802006
0000b0 16 cd 88 ba 50 3a e5 3c 14 7d 96 3d 8b 91 c9 3d
       -0.0010437097 0.027981907 0.073480755 0.09842213
0000c0 dc f0 94 3d f1 d4 14 3d 9f 05 09 3d ca 65 65 3d
       0.07272503 0.03633589 0.033452626 0.056005277
0000d0 40 84 ea 3d e5 8c af 3d 7c 76 d3 3d a6 6f 92 3d
       0.11451006 0.085717954 0.103253335 0.071502015
0000e0 a8 18 4d bc fa 6f 82 3d 92 61 03 3d 24 99 a2 3d
       -0.012518086 0.06369014 0.032075472 0.079393655
0000f0 39 1e 37 bd 47 b4 d4 3d e9 31 db bb 0a 31 c7 3d
       -0.044706557 0.10385948 -0.0066892994 0.0972615
000100 b5 00 a7 3a 47 8d 40 3b 9f 26 c0 3c 8f df ec 3d
       0.00127413 0.0029381083 0.023455916 0.11566078
000110 27 46 b6 3d 34 e8 88 3c 7c 29 9a 3d 8e f6 dd 3c
       0.08900099 0.016712286 0.07527444 0.027095105
000120 54 6a 6d 3d ef 26 0a 3e 40 9e 85 3d 94 13 b2 bb
       0.05796273 0.13491414 0.065243244 -0.005434463
000130 57 7f d1 3d b2 a8 00 3c 17 5a ae 3c 82 b1 7b 3d
       0.10229366 0.00785272 0.021283193 0.06144858
000140 f8 ed 77 3d 5e 0e e1 3c 74 5c 2f bc d3 5d af 3d
       0.06052968 0.027472671 -0.010703195 0.085628174
000150 ef bc 34 3d bb af 27 3d 7a 94 cd 3d 4e 66 bb 3c
       0.044125494 0.040939074 0.10038085 0.022875931
000160 7e f3 ad 3c 6f 3d c9 3c c3 70 45 3d d8 58 70 3d
       0.02123427 0.024565427 0.04820324 0.058678478
000170 f4 39 4a 3d d3 fe a9 3c de a3 91 3c 6e de 10 3b
       0.049371675 0.020751392 0.017778333 0.0022105235
000180 d7 40 f5 3c 90 6b 03 3d 23 8d 89 3c 3e 0f 68 3d
       0.029938145 0.032085 0.016790932 0.05665516
000190 ed d7 bb 3d e4 88 a8 3d df 61 58 3d d8 36 79 bc
       0.09172044 0.08229235 0.052827712 -0.01521083
0001a0 29 0a 56 3d b0 be ef 3c 1c 79 aa 3d 52 ef a1 3d
       0.052255783 0.029265732 0.08323881 0.07906975
0001b0 f4 63 93 3d 31 22 83 3d 67 69 f0 3b 5e ac 55 3d
       0.07196799 0.06403006 0.0073367837 0.052166335
0001c0 af 52 a4 3d 2d e6 26 3d e1 cb ac 3d 1d 21 ba 3d
       0.08023583 0.040746856 0.08437324 0.09088347
0001d0 38 c0 3a 3d d1 26 d6 3d f2 43 34 3d 06 b7 5d 3d
       0.04559347 0.104566224 0.04401011 0.054129623
0001e0 9e b5 2a 3d 23 df 24 bc 92 62 85 3d ea 2c 95 3c
       0.04167711 -0.010062966 0.065129414 0.018209893
0001f0 26 47 8c 3d 5a 0b 9f 3d c3 33 26 bd 83 2f 78 3c
       0.06849508 0.07765837 -0.040576708 0.015148046
000200 85 1a cb 3d e4 c3 bb 3d 49 2e bf 3d d0 c2 08 3e
       0.099171676 0.091682225 0.09335 0.13355565
000210 e4 53 9d bc 2e ea d8 3d c1 2a 84 3d 56 51 05 3e
       -0.019205041 0.10591541 0.06453467 0.13019308
000220 f9 a3 73 3d 5a 94 ef bc 72 98 9c 3d ca 31 27 3c
       0.05948255 -0.029245544 0.07646264 0.010204742
000230 35 6f 9e 3d a1 0e 21 3d 44 e4 69 3a 1f 34 34 3b
       0.07736055 0.03932059 0.0008922259 0.0027496887
000240 aa 01 a2 3d 18 18 8e bc a7 57 8b bb 1c 4a bc 3d
       0.07910474 -0.017345473 -0.0042523923 0.09193823
000250 79 78 c5 3c 81 b9 9d 3c a4 c9 8b 3d bd 8e 68 3d
       0.024105297 0.019253494 0.06825569 0.05677675
000260 fe 2e 28 3d 44 26 98 3d b3 f9 be 3d ca 64 7a 3d
       0.04106044 0.074291736 0.0932497 0.061131276
000270 d5 69 b5 3d 8b c4 6d bd ae 42 3a 3b 85 ce ba 3d
       0.088580765 -0.058048766 0.0028421092 0.09121422
000280 be ec 2d 3d f4 e6 e3 3d be aa 59 3c 23 92 81 3d
       0.042462103 0.11128035 0.013285337 0.063267015
000290 23 f2 94 3d 46 81 e9 3c 85 a9 a3 3d 03 26 6e 3d
       0.072727464 0.028504025 0.07991318 0.05814172
0002a0 ec 31 34 3d 3d 88 9c 3c 32 ce aa 3d 16 04 0b 3d
       0.04399292 0.019107932 0.0834011 0.033939444
0002b0 e0 ac bb 3b 3a b9 60 bd ad 78 59 3d ec 67 81 3d
       0.0057273954 -0.054864146 0.0530936 0.0631865
0002c0 39 c5 f3 3d b1 83 da 3d 31 1d 35 3d eb d7 a4 3d
       0.119028516 0.106696494 0.044217292 0.080489956
0002d0 92 69 1a 3c 44 75 ea 3b 38 d6 12 bd c3 53 18 3d
       0.009424584 0.0071550924 -0.035848826 0.037189256
0002e0 2f 3c 02 3d 92 13 be 3c f9 59 a6 3d 7c 77 23 3d
       0.031795677 0.023202691 0.0812263 0.03990887
0002f0 88 f0 98 3d 69 65 35 3c 75 31 9f 3d af 8c 91 3d
       0.07467753 0.011071541 0.07773105 0.071069114
000300 a0 3c 06 3c 1f b8 ad 3d 87 70 ae 3d 1f 1e 0a 3d
       0.008193165 0.08482384 0.08517557 0.033720132
000310 c2 10 74 3c 50 16 c5 3d c8 73 90 3c e1 2f 9b 3d
       0.0148965735 0.096233964 0.017633334 0.075774916

layer2.0.weight f4 [100, 200]
000000 bf d1 7c 3e eb f4 07 3d 05 0d 84 bd d0 f5 39 3d
       0.24689387 0.033192556 -0.06447796 0.04540044
000010 3e 7f 24 3e 63 a2 b1 bd 67 a9 3f bd 7a 2d 38 bb
       0.16064164 -0.08673551 -0.046792414 -0.0028103278
000020 9e e2 8e 3c 04 be 19 3e 42 c3 3a be 4d a9 fa bd
       0.017442044 0.15013891 -0.18238547 -0.12239323
000030 f8 cf 00 3e 96 9b fb bd 9c b8 4b 3e 32 93 fd b9
       0.12579334 -0.12285535 0.19894642 -0.0004836559
000040 4f 64 53 be 61 bb 72 3e 0b 9e 52 bd 8b b7 27 3e
       -0.20643733 0.23704292 -0.051420253 0.1637861
000050 1c 94 52 3d 7c 7c 3b 3d a6 0f 43 bd 5c 50 47 be
       0.05141078 0.045773014 -0.047622345 -0.19464248
000060 1f 3f 19 3e 26 8f 04 bd f5 9d 3a be a5 eb 04 3e
       0.14965485 -0.03236308 -0.18224318 0.12980516
000070 20 2f af bd c8 81 fa 3d c8 e9 f9 3d 15 d8 73 3d
       -0.0855391 0.12231785 0.12202793 0.059532244
000080 1b 3c f9 bc 4d 62 d3 bd 29 55 0b be a4 21 52 be
       -0.030424168 -0.10321484 -0.13606705 -0.20520645
000090 31 9c f9 bd 97 99 73 3e f1 d7 73 bd 4d a9 70 bd
       -0.12187994 0.23789059 -0.05953211 -0.058755208
0000a0 77 0a 8b bd 5d 04 0f be 1d 4d ab bb 5c d2 02 bc
       -0.067891054 -0.13966508 -0.0052276985 -0.007984724
0000b0 26 0c 4f 3e ac 86 63 be 85 0d 32 3d 95 9b 33 bd
       0.20219478 -0.22219342 0.043469924 -0.043849546
0000c0 d5 e8 c9 3d ea e1 f2 3b 09 9d e7 3d 69 76 3b bb
       0.09858862 0.007412185 0.11309249 -0.0028604513
0000d0 40 60 04 3b 7e 58 09 3d 84 16 31 3e e0 c0 3c 3c
       0.002019897 0.03353166 0.17293745 0.011520594
0000e0 1d 9d ee 3c 80 70 2e 3c 95 bf 88 3e be 5a b0 3d
       0.029127652 0.010646939 0.26708665 0.08611058
0000f0 dd d8 37 bb ae 8c ad 3e bb f3 d7 3b 61 c9 a9 bd
       -0.0028052845 0.33896393 0.0065903342 -0.08290363
000100 df f8 3d bd 1e 4b 23 3d 35 51 3e bd 79 3b 9a bd
       -0.04637992 0.03986656 -0.046464164 -0.07530875
000110 ed a1 1d 3e 43 a9 5b 3d 28 00 f3 3d 1d 9a a3 be
       0.15393801 0.053628217 0.11865264 -0.31953517
000120 e9 fe 08 3e 9e 90 81 3e ad 95 3e be dd df 7b bd
       0.1337849 0.25305647 -0.18611784 -0.06149279
000130 63 59 37 3e ca 33 99 3c f5 9f 6d 3e d2 aa 6a 3c
       0.17905192 0.018701453 0.2320555 0.014322953
000140 1c 9a 1d be b0 5d 4d 3d e4 fb 3d 3e db de e3 3d
       -0.1539082 0.050138175 0.1855312 0.11126491
000150 5d 09 c8 bd dd 1c 23 bd 05 05 f0 bd 4a 6b 63 3d
       -0.09767411 -0.039822448 -0.117197074 0.05552224
000160 f3 d4 6d be 11 14 76 3e b5 d2 db bd d8 d4 8c 3e
       -0.23225765 0.24031092 -0.107335486 0.27506137
000170 18 7e 2b be be 23 09 be eb f5 0d 3e a4 14 94 3d
       -0.1674732 -0.13392541 0.13863342 0.072304994
000180 08 c9 d7 3c bf 7b 19 3e 70 3b 3d bc 4d a0 27 3c
       0.026340976 0.14988612 -0.011549816 0.01023109
000190 84 fa d8 bb e4 91 13 3e 21 25 be 3b 3d 3d a1 3c
       -0.0066216607 0.14411122 0.005802766 0.019682521
0001a0 86 f3 0a 3c 34 3d 95 bd 19 ea fd bd 2f f5 94 ba
       0.008480912 -0.07287064 -0.12398166 -0.0011364574
0001b0 83 c7 15 3d 57 07 6e bd 9c 2c 91 be 9a 9a 21 3e
       0.036567222 -0.05811247 -0.28354347 0.15781632
0001c0 7a f7 16 bd 19 09 9d be 4d 40 e4 bd b9 9f d5 3c
       -0.036857106 -0.30671003 -0.11145077 0.026077138
0001d0 94 66 dc 3d b2 6a 78 be 83 6f f0 3d a9 6b 06 be
       0.10761753 -0.24259451 0.11740019 -0.13127007
0001e0 1f 09 7a bd 84 dc 8c 3e af 2e 16 bd 95 b7 fd 3c
       -0.061043855 0.2751199 -0.036665615 0.030971328
0001f0 e6 19 9f bd 70 ec 76 bd 9d 89 f4 3d 2b 50 5e 3e
       -0.077686116 -0.060284078 0.1194031 0.21710269
000200 09 e2 5b 3c e3 64 94 3d 64 70 6d be 40 73 8c bc
       0.01342059 0.07245805 -0.23187405 -0.0171448
000210 09 03 82 3e 2e 99 4b 3e 72 f3 08 3b b8 e1 9a 3b
       0.2539294 0.19882652 0.0020897058 0.004726615
000220 b0 21 43 3e 76 7c 8f bd ca a3 40 bd b3 0a 80 3e
       0.1905582 -0.07006161 -0.0470312 0.25008163
000230 0a d9 26 be 74 36 b9 3c 7f e2 a8 3e 6f 2f 41 3e
       -0.16293731 0.022608973 0.32985303 0.1886575
000240 27 b1 24 bd ad 77 5d bc da cc 64 3c a6 97 8d 3d
       -0.04020801 -0.013517302 0.013964856 0.0691369
000250 47 77 5a 3d ae b5 d8 3d 76 e4 1f 3e 92 93 83 3d
       0.053336408 0.10581528 0.15614495 0.06424631
000260 f4 c1 85 bc f0 5c 41 bd df 54 07 3e 94 a0 02 be
       -0.016327836 -0.047207773 0.1321597 -0.12756568
000270 b2 c8 a1 3d 56 50 12 3d c4 fd ac bd ce c9 6f be
       0.07899608 0.035721146 -0.084468395 -0.23416826
000280 d6 eb 2a 3c cc e3 c0 3d 5e 56 67 3d 63 af 44 3e
       0.010432204 0.09418449 0.05647885 0.1920753
000290 d2 04 b0 3c c0 4a 81 bd 3f 6d 26 3d 6a eb e7 3d
       0.021486674 -0.063130856 0.04063153 0.113241985
0002a0 2c e8 52 3d be d8 d4 3d 4f 8b 32 bc ed 85 c6 3d
       0.051490948 0.10392903 -0.010897472 0.09693513
0002b0 e8 15 74 3e 29 d0 bf 3b 6f fb e7 3d 9e 9c 83 be
       0.23836482 0.005853672 0.11327254 -0.25705427
0002c0 3c a1 c8 3d 80 dc ec 3d 9c b4 e0 3c 83 c5 9f be
       0.09796378 0.115654945 0.027429871 -0.31205377
0002d0 64 2a 27 3c c9 9b a6 bd 1f e7 3e bd 77 57 db bd
       0.010202978 -0.081351824 -0.046607133 -0.10710042
0002e0 f4 cf d2 3c a6 52 6e 3d 74 9d f6 3d d7 5d 41 3e
       0.025733925 0.05818429 0.120417506 0.18883453
0002f0 57 6a 3d 3e 4e 95 05 3d 74 2f cd bd e1 5d a5 3d
       0.18497597 0.03261309 -0.100188166 0.080745466
000300 fe 6e fa bc 98 0f a1 bd 67 91 24 3e 58 ce 95 3d
       -0.030570503 -0.078643024 0.16071092 0.073147476
000310 ce 1a 81 3d 42 c0 98 bb 55 47 5f be b7 0a d9 bc
       0.06303941 -0.004661591 -0.21804555 -0.026494367
000320 16 e2 69 3d d7 3d 34 3e ab b2 1b 3e 17 fa 81 3c
       0.057100378 0.17601715 0.15204875 0.015866322
000330 ba fc 44 bc 83 25 bb bd 70 03 b6 3a 39 13 12 3e
       -0.012023145 -0.09138014 0.0013886523 0.14265145
000340 9b b5 c6 3d f9 c4 14 bc 5f ef 9f 3d 3c ef 04 3d
       0.09702607 -0.009080165 0.07809328 0.032454714
000350 e7 af ad bd 0f 12 4b 3e 29 84 fb 3d d0 09 fe 3d
       -0.08480816 0.19831108 0.12281067 0.12404215
000360 55 b4 a3 bd 4f 2a 3b 3d 04 ea b8 3c 4f d2 c0 39
       -0.0799338 0.045694645 0.022572525 0.00036777786
000370 aa b9 ae bd 80 64 74 3c 90 d8 9b 3d cb 4c 18 3d
       -0.08531506 0.014916539 0.076096654 0.03718261
000380 e8 97 21 3e f8 89 7f 3d 6c bd 12 3e 6f 11 63 3c
       0.15780604 0.062387437 0.14330071 0.013859137
000390 5a 2e d7 3d 88 89 06 3d ef 0a aa bd 32 13 d3 bc
       0.10506888 0.032846004 -0.08302867 -0.025765989
0003a0 07 4f 0d 3d e1 21 64 3e 07 8e 18 bc e2 88 13 3e
       0.034499194 0.22278549 -0.009311206 0.14407685
0003b0 9a 5e f7 3d 5a 55 b5 3c 32 af 5f bd cb e6 1f be
       0.12078591 0.022135425 -0.05461044 -0.15615384
0003c0 f1 c1 a0 3d b8 13 18 bd b0 4a b3 3d 1f 91 28 3d
       0.078494914 -0.03712818 0.0875448 0.041154023
0003d0 0e 81 c6 3d c0 28 2a bd 4f 5f c9 bd 28 1b 4b bd
       0.09692584 -0.04154277 -0.09832632 -0.049586445
0003e0 58 80 b4 bd f4 92 ae 3d 31 96 63 bd 87 5c 82 3d
       -0.08813542 0.08524123 -0.055563156 0.063653044
0003f0 8e a7 39 bd 91 24 c6 3d 14 a3 cc bd 23 f9 b2 bd
       -0.04532581 0.09674943 -0.09992042 -0.08738925

layer2.0.bias f4 [100]
000000 49 14 87 3c 20 89 00 3e e1 48 4d bd 58 7f b1 3d
       0.016489165 0.12552309 -0.05011833 0.08666867
000010 59 ff 7d bd 44 40 ac 3d e5 9b 88 bd 2d e8 a1 3d
       -0.062011097 0.08410695 -0.066703595 0.07905612
000020 66 f6 a4 3d 67 d5 0f 3c 51 b7 87 bd e2 0f 8f 3d
       0.08054809 0.008778906 -0.06626762 0.06985451
000030 5c 5e 41 3d 57 6c 03 3d 87 b3 aa 3d 14 dc 67 bc
       0.04720913 0.032085743 0.083350234 -0.014151592
000040 76 e8 8a 3d cd 24 ff bb 98 8a ef 3c a2 2e 89 bb
       0.0678262 -0.0077863694 0.029240891 -0.0041864673
000050 92 ee 9c 3d 67 57 c1 3d 80 32 30 3d 85 b3 d0 3d
       0.07662691 0.09440499 0.04301691 0.10190491
000060 30 80 59 bd 63 cc d3 3c 21 9f aa 3c 64 a4 05 3d
       -0.053100765 0.025854295 0.020827832 0.03262748
000070 34 b8 a4 3c e0 bb e0 3d 2f df 5d 3c 57 2d 29 bd
       0.020107366 0.10973334 0.013541981 -0.041303005
000080 e9 ec 09 3c d6 e5 b9 3c 93 1e d9 3d dc df 9b 3c
       0.0084183 0.022692602 0.10601535 0.019027643
000090 0f bc 3d bd 78 c1 d6 3c ed d8 8b bd 35 61 be 3d
       -0.046321925 0.0262153 -0.06828485 0.092958845
0000a0 8e de 9c 3d c0 bd 98 3d 3f 25 6f 3c c1 29 a1 3c
       0.076596364 0.07458067 0.0145962825 0.01967323
0000b0 18 21 89 bc 64 ec 9c 3d 6d 47 12 bd 1c 7b 94 3d
       -0.016739413 0.076622754 -0.03571265 0.07250044
0000c0 d6 35 d1 3d 70 f3 7f bd 9a 61 1e 3d ac 09 a4 3d
       0.102153465 -0.06248802 0.0386673 0.08009657
0000d0 5d d1 7c bc dd 48 c9 bc cc d2 47 3d fd 8d 42 3d
       -0.0154307755 -0.024570877 0.048785016 0.04749869
0000e0 a5 fc fd 3c 51 32 0e 3d 01 f4 3c 3d 8c cf 4f 3d
       0.03100426 0.034715954 0.046131138 0.05073504
0000f0 61 20 9d 3c 32 18 93 3d 59 bb 71 3d c1 d0 28 bd
       0.019180479 0.07182349 0.05901656 -0.04121471
000100 3e 7d e8 3c a8 29 e3 bc 21 93 73 3d 76 d3 9e 3d
       0.028380033 -0.027729824 0.059466485 0.07755177
000110 e2 f4 13 bd 69 0c 24 3d bd 5d 79 3d 16 f8 05 bd
       -0.03612221 0.040050898 0.06088041 -0.032707296
000120 f4 12 ca bc d0 af 0f 3c d6 c3 72 3b 7d 88 f3 3c
       -0.02466724 0.008769944 0.0037042997 0.029728169
000130 63 01 54 3d 8c 0f 88 3c c0 a9 83 3d 3a c0 86 bd
       0.051759135 0.016608976 0.064288616 -0.06579633
000140 1a a3 cc 3c 39 46 e6 3d 80 f8 c8 3c d9 d8 63 bc
       0.024980117 0.11243863 0.024532557 -0.013906681
000150 12 39 e5 3d 04 1e 9c 3d 69 14 ea 3c 32 d8 ea 3c
       0.11192526 0.076229125 0.028574185 0.028667543
000160 c5 1e 4c 3d 42 30 2e 3d 15 6b 00 bd b4 e4 01 bd
       0.04983403 0.04252649 -0.03135212 -0.03171225
000170 3f 12 dc 3d e7 eb 49 3d 37 86 48 ba a3 2d 30 3d
       0.10745668 0.04929724 -0.0007649394 0.043012273
000180 1b 92 e4 bc 66 7b 26 bd f0 b2 62 3c cb 9e a1 3d
       -0.0279017 -0.040645026 0.013836607 0.078916155

layer4.0.weight f4 [52, 100]
000000 ec 3d ee 3e 09 28 4d 3e ea db e8 bd 72 d3 5b be
       0.46531618 0.20034803 -0.1137007 -0.21467379
000010 f6 b0 ff bc 2c 8e 17 be 45 9b a8 3d 5e 12 bb bd
       -0.031212311 -0.14800328 0.0823274 -0.09134363
000020 3b b9 0f bf 8f f4 18 3e 1d 80 bf 3d 2d f3 08 3e
       -0.56142014 0.14937042 0.093506075 0.13374014
000030 50 a7 55 3c 52 40 28 be 51 a3 8c 3e ff 5e 29 bd
       0.013040379 -0.16430786 0.2746835 -0.04135036
000040 4f 5e a1 3e 19 8f 19 be 8d 7b 57 be 8b 40 a9 3d
       0.31517264 -0.14995994 -0.21043225 0.08264264
000050 ba 6b 41 3c 0d 7f a6 3e 20 c5 66 3e 33 a2 78 3e
       0.011805469 0.32518807 0.22536135 0.24280624
000060 60 97 69 be 8d e2 6e bd 0c 65 c3 3d 30 79 86 be
       -0.22811651 -0.058321524 0.095407575 -0.26264334
000070 37 cb f6 3c 0d cd 9d 3d ce 07 c9 bc c5 13 64 3e
       0.030126197 0.07705126 -0.024539854 0.22273166
000080 76 73 1e 3c e8 42 f3 bd 64 89 26 be 25 d8 d8 bd
       0.009671083 -0.11877996 -0.16263348 -0.10588101
000090 4e cd c6 bd 51 7e 86 3e 88 40 64 3c 24 c7 20 3c
       -0.097071275 0.26268247 0.013931401 0.009813104
0000a0 97 f4 ad bd ca b0 29 be 13 c1 b4 be c9 83 62 be
       -0.084939174 -0.16571346 -0.35303554 -0.22120585
0000b0 58 89 c9 be 8b be c1 3e 1f 84 4d 3e 2f e7 96 3e
       -0.39362597 0.37840685 0.20069931 0.29473254
0000c0 22 e1 5a 3e 4b fa 18 3d 55 51 ac 3d d2 c1 f7 3d
       0.21374944 0.037348073 0.0841395 0.12097515
0000d0 09 de b3 bd 17 86 58 bd 2a 77 8e 3e 21 71 b6 bd
       -0.08782584 -0.052862253 0.2782529 -0.089082964
0000e0 b1 4c 6f 3d ce d5 a2 be 38 eb 03 3e f3 b9 62 bd
       0.058422748 -0.31803745 0.12882698 -0.055353116
0000f0 fd cc 19 be 5c be b9 3e d7 ac 19 be b4 89 df 3c
       -0.15019603 0.36278045 -0.1500734 0.027287342
000100 5f 36 a4 3e 37 7d 98 be dc 81 69 3e e8 4c ee be
       0.32072732 -0.2978303 0.22803444 -0.4654305
000110 a0 0c c6 3d bf e0 17 bb 3a 7e ce bd 13 5f 9c bd
       0.09670377 -0.002317473 -0.100826696 -0.076353215
000120 b2 7f a9 bd 86 3b 92 be d9 92 6d 3e fb 97 b7 3e
       -0.08276309 -0.28561038 0.23200549 0.3585814
000130 17 9d a2 be 49 92 67 3d bc 03 d3 be a7 b1 0a 3d
       -0.31760475 0.056535993 -0.41213787 0.03386083
000140 39 b7 f3 3d 55 07 3e 3e 3d e3 e8 bd 8a 7a 8e 3d
       0.11900181 0.18557484 -0.11371467 0.06956966
000150 52 79 46 be ab 36 cd 3c 04 98 5d 3e 57 58 10 be
       -0.19382218 0.025050482 0.2164002 -0.14096199
000160 ed 0f 23 be 09 9c 4f bc 02 5d 17 3c 4b f8 90 bd
       -0.15924044 -0.012671479 0.009238483 -0.07078608
000170 7a 63 b2 be 59 f4 ce bd ef 6f 95 3e c7 d8 37 be
       -0.3484152 -0.10105199 0.2918696 -0.17953788
000180 a6 3e 56 bd 71 28 8a bd 25 55 b4 3e ad 8a 6f 3e
       -0.05230584 -0.06745995 0.3522121 0.23392744
000190 72 73 b6 be e1 82 1b 3e ed e3 24 be 80 dd a9 be
       -0.35634953 0.15186645 -0.16102572 -0.33176804
0001a0 46 0a cb 3c 49 3c 0c 3e c3 d7 6c bd c7 9b dd 3e
       0.024785172 0.13694872 -0.057822954 0.4328291
0001b0 0b 43 a5 3d 96 5d 07 3c 58 87 83 bd 25 c9 b7 bd
       0.08069428 0.008262059 -0.06422299 -0.08973912
0001c0 1e af 38 be 65 09 60 3c ad 21 94 be 56 30 e4 be
       -0.18035552 0.013674115 -0.28931943 -0.44568127
0001d0 eb f2 f2 3a c4 e9 40 be 0b 22 bf be b1 45 be bb
       0.001853553 -0.18839175 -0.3733066 -0.0058066477
0001e0 ea b0 88 bd 87 a1 56 3e 69 9e 2f be d2 0a ed 3e
       -0.06674369 0.20960055 -0.17150272 0.46297318
0001f0 f7 af 20 3d e4 7b 1e bd 86 45 78 bd 66 37 01 be
       0.039230313 -0.03869237 -0.060613178 -0.12618789
000200 30 0f aa be f6 cb 4e 3e 7a 0d 92 bc c0 04 8e 3e
       -0.33214712 0.20194992 -0.017828692 0.27738
000210 b0 3c 3a 3d ac cf 80 3d 04 97 32 3e ee 40 df bc
       0.045468032 0.0628961 0.1744042 -0.02725264
000220 01 c6 07 be ce ca 50 bd 3d 26 92 bc 79 5f 43 be
       -0.13259126 -0.05097466 -0.017840499 -0.19079389
000230 18 77 f0 3d 8d 0c bb bd d6 65 9d 3e ec e8 2d be
       0.11741465 -0.09133253 0.30741757 -0.16983384
000240 d3 d2 23 be 09 8e 81 3e 42 ef e6 3d 3c b2 fa 3e
       -0.15998392 0.25303677 0.112761036 0.48964107
000250 a6 91 b0 3d d8 39 90 bd 4c 18 0b 3d f1 2c 9a be
       0.0862153 -0.07042283 0.03395872 -0.30112413
000260 9d d3 6f be 28 8c 46 3d e4 f5 86 3d 04 bc 86 3e
       -0.23420568 0.048473507 0.06589869 0.2631532
000270 51 72 3a 3e 6a 16 3a 3e 3a f5 2a 3d 5c 02 74 bd
       0.18207671 0.18172613 0.041737773 -0.059572563
000280 27 c2 36 bd 75 ae 03 3f c7 a7 e3 3e 47 7b d3 bc
       -0.04461875 0.51438075 0.4446394 -0.02581562
000290 d2 c0 00 3e 6b 57 95 3e 2b 86 18 3e c3 55 a3 be
       0.12573555 0.29168257 0.14894931 -0.31901368
0002a0 3f 51 97 bd da f3 3b 3e 0f ca f6 be 33 f1 91 bd
       -0.07388543 0.1835474 -0.48201033 -0.07126083
0002b0 e1 2d 5e be 4f 30 30 be 87 4f b4 ba 6c cd a3 bd
       -0.21697189 -0.17205928 -0.0013756611 -0.079981655
0002c0 b7 f3 b0 3e 5a 20 9b be c2 f8 8c 3e 38 32 03 bd
       0.3456094 -0.3029812 0.27533537 -0.032030314
0002d0 ba 8a 45 be 91 26 45 3e 8f 1f 7a 3c ae 87 1c 3d
       -0.19291201 0.19252993 0.015266313 0.03821533
0002e0 20 c4 0d be bf 81 4c 3e b1 8f 58 be 7f 03 db 3c
       -0.13844347 0.19971369 -0.21148564 0.026735066
0002f0 d7 91 0c 3c e7 db 4f be 82 b5 01 bd 94 50 11 3e
       0.008579693 -0.2029873 -0.03166724 0.14190894
000300 ae d0 82 be 35 02 d8 3d f1 4f 01 3e 5f 8b a8 be
       -0.25549835 0.10547296 0.12628151 -0.32918832
000310 34 d6 3d 3e 1a 70 b5 bd d9 50 76 be ed 7a 68 be
       0.18538743 -0.08859272 -0.24054278 -0.22703142
000320 96 82 ee 3e 77 a8 b9 3e c3 21 a1 3c a6 60 a5 be
       0.46584004 0.3626134 0.01966942 -0.323003
000330 2a d5 c0 3d d1 1a 5f 3e 02 0d 1d bc 38 7b 6b be
       0.09415658 0.21787573 -0.009585621 -0.22996223
000340 7e fb b6 bd 54 ef 57 3e 83 99 d8 3c b4 8b a4 be
       -0.08934687 0.2108739 0.026440388 -0.32137835
000350 fe e2 81 be b5 0e dc be c7 c6 d5 bd a8 63 b3 3d
       -0.25368494 -0.4297997 -0.104383044 0.08759242
000360 a2 ac c6 be 59 c2 80 bd 0d 02 00 3f 09 6e 01 3d
       -0.38803583 -0.06287069 0.5000313 0.03159908
000370 90 a8 11 bd 83 a7 c5 3e e5 3f 80 3b be 3a d9 bd
       -0.035561144 0.38604364 0.003913867 -0.10606907
000380 86 e7 ec 3d 71 0a 65 3e a2 43 d9 bb 09 17 e7 bd
       0.11567597 0.22367264 -0.006630377 -0.112836905
000390 7a 3a 99 bd 73 f4 f9 3e c6 c9 be bd d7 0b a0 bd
       -0.07481857 0.48819312 -0.09315829 -0.07814758
0003a0 5d 6a 4b 3d 8c a4 b2 3e 49 c1 d8 3e fe 69 bb bd
       0.049661983 0.34891164 0.42334965 -0.09151076
0003b0 38 75 96 bd ae 10 ea bd 8b ca b6 bc 32 4d 64 be
       -0.073465765 -0.11428963 -0.022313377 -0.22295073
0003c0 1d ae a2 bd 42 ad 2e 3e 60 73 a4 bd ee 97 90 3e
       -0.07943366 0.1705828 -0.080298185 0.28240913
0003d0 3b d5 0f be f5 4b 76 be a1 e3 95 bc 2b c1 a5 3e
       -0.14046185 -0.24052413 -0.018297018 0.32373938
0003e0 f1 f9 aa bd 80 c4 95 3d 41 df b3 be 81 87 ef be
       -0.08348454 0.0731287 -0.35131267 -0.4678307
0003f0 b6 d2 db 3d 3e f9 45 be 13 66 48 be e7 f6 c9 3d
       0.10733549 -0.1933336 -0.19570188 0.09861546

layer4.0.bias f4 [52]
000000 09 ea b5 3d 7f 05 1e 3e 95 b9 3d 3e a0 ab b0 3d
       0.08882529 0.15431784 0.18527825 0.08626485
000010 60 4b bc bd ca bc 5b bc 2b 3d d9 bd 1a 86 1c be
       -0.09194064 -0.01341171 -0.1060737 -0.1528553
000020 b4 e9 93 bb b4 4d 35 bd 50 a8 69 bd 54 a5 ff bd
       -0.0045139436 -0.044263557 -0.05704528 -0.12482706
000030 57 b1 a1 bc bc 2b 22 3e d3 18 b4 3d f0 9b ba b9
       -0.019737883 0.15836996 0.08793797 -0.00035592867
000040 d9 52 a4 3c c5 c7 99 3d a1 57 8a bd 1a dd 10 bc
       0.020059036 0.07508806 -0.06754995 -0.008841777
000050 c1 5a ce bd 61 fe 75 bd 3d 66 c4 bc 71 8f 4b 3d
       -0.10075904 -0.060057048 -0.023974532 0.049697343
000060 5c df 4c bd ee c8 ff 3b df 5c 6b bd 65 7f 21 3e
       -0.0500177 0.007805935 -0.057461616 0.15771253
000070 37 cc 34 3d d5 78 98 bd e5 e3 93 bd 56 e3 52 bd
       0.044140067 -0.07444922 -0.07221202 -0.051486336
000080 0d b9 71 3d c3 85 98 bd ec 2a 60 bd 97 ea 80 bd
       0.05901437 -0.07447388 -0.054728433 -0.062947445
000090 cd 3a ac bc 5c 1c a9 bc 74 45 59 3d 54 8f 1b 3e
       -0.021024132 -0.020643406 0.05304475 0.15191394
0000a0 ff 1d a9 bd 7d b5 ad bd b1 62 14 3c 4c ee d8 bd
       -0.082576744 -0.08481882 0.009056733 -0.105923265
0000b0 fc 9b bd bd b3 07 07 bd 03 60 8f 3d 21 b4 7b 3d
       -0.09258267 -0.032966327 0.07000735 0.06145108
0000c0 d5 83 28 3d ef 88 ec bd 46 22 54 bd fa 7a 8d 3c
       0.04114135 -0.115495555 -0.0517905 0.017270554
