src/ModelClient/models/trained_agents/dqn-self-play.pth (torch_old, 721572 bytes, 6 tensors)

fc1.weight f4 [300, 364]
000000 80 1a 18 bd fd 53 a1 bc 71 93 49 3d 2d da 1c 3c
       -0.037134647 -0.019693369 0.049212877 0.009573502
000010 be 24 f1 bb 70 fb a1 3d 06 68 32 3c bc 9a 6c 3d
       -0.0073591163 0.07909286 0.010889059 0.057764754
000020 ef 57 cf bc cb f9 0b 3d 1b 42 25 3e 4d 98 40 be
       -0.025310485 0.034173768 0.16138498 -0.18808098
000030 dc 65 54 3d 79 1c 71 bc 29 b4 d6 3c 33 52 1e 3c
       0.051854953 -0.014716261 0.026208954 0.0096631525
000040 56 5c 1a bd 60 fe 8d bc eb 0c 26 3d 48 2a 88 3e
       -0.037685715 -0.01733321 0.040539663 0.26594758
000050 f3 48 6d bd 61 e6 8f 3d e9 63 c8 3d 91 46 8b 3d
       -0.057930898 0.07026363 0.09784681 0.06800569
000060 82 a6 3d 3d 92 df 30 3e df 7c fb bc 54 9b ac 3d
       0.046301372 0.17272785 -0.030699192 0.08428064
000070 cf f9 8d 3c c3 a0 92 3d 22 c0 90 bd 6b d4 01 3b
       0.017331032 0.07159569 -0.070678964 0.001981045
000080 2f 18 63 3e 2e 9e ac bc ae 4f 9f 3c 9b bc ba 3d
       0.22177194 -0.02107152 0.019447174 0.09118005
000090 d4 fc 15 3d f9 16 51 bd ee e3 2f bd 1f 2f a3 3e
       0.03661807 -0.0510473 -0.04294198 0.31871888
0000a0 c7 49 dd be bd d5 02 3d f6 ac cc 3d a0 ee b3 3e
       -0.4322035 0.031942118 0.09993927 0.35142994
0000b0 15 c0 a3 3d 55 f2 22 be 32 f2 6e be 83 e0 95 be
       0.07995621 -0.15912755 -0.23334578 -0.2927285
0000c0 ff 04 34 be 0a a0 08 3f 8a 79 e0 bd fb aa 9f bc
       -0.17580031 0.533692 -0.10960682 -0.01949071
0000d0 3c 06 8f bd b1 ca da 3d b7 5e 24 bd d1 80 80 bd
       -0.06983611 0.106831916 -0.04012939 -0.0627457
0000e0 f1 21 cf 3d 1b 38 4e bc 86 21 b1 3d c1 7f 8a 3d
       0.10113896 -0.012586619 0.08648972 0.067626484
0000f0 da 0f 87 bb be 2c b6 3d 58 42 97 3d 74 26 17 3d
       -0.0041217627 0.08895253 0.07385701 0.036901906
000100 f1 f9 50 bd 80 2b 71 3d 7f a4 bb 3d dc b8 ea 3d
       -0.051019613 0.058879375 0.091622345 0.114610404
000110 4e 85 95 3d a1 c7 0f 3d 29 85 22 3c ed 56 af 3c
       0.073008165 0.03510249 0.009919443 0.021403754
000120 26 35 0e 3e 80 24 7c bc 69 be 7b 3c 8b ce 82 3c
       0.13887462 -0.015389562 0.015365222 0.015967628
000130 ca 6b 4c bd 84 d1 56 3d 37 8e be 3c fd 04 1c bd
       -0.049907483 0.052445903 0.023261173 -0.038090695
000140 3f a2 c4 3c 15 61 17 3d d4 3a a9 3d df 0a be 3d
       0.024003146 0.03695782 0.08263174 0.09279417
000150 0a 67 d5 3b 6f cc 0c bd b1 65 94 bc 9d 19 69 bd
       0.0065125274 -0.03437465 -0.018114896 -0.056909192
000160 a1 ed d7 bc 57 ba f6 bc 63 3d d2 bc fc aa 98 39
       -0.026358427 -0.03011815 -0.025664037 0.00029119093
000170 ea ed b4 3c ba ec 48 3a bb 51 2f 3d a6 de 90 bb
       0.022086103 0.00076646695 0.042802554 -0.004421073
000180 85 4d 0e 3e ff 7e f5 bc c5 de 03 3c 28 6f 2d bd
       0.13896759 -0.029967783 0.008048718 -0.042342335
000190 32 92 58 3d ad de 4f 3c 57 62 5b bd cf 75 a5 3d
       0.052873798 0.012687367 -0.05356058 0.08079111
0001a0 77 3c 86 3c 47 1c ef 3d 00 29 ff 3d 2e 44 cc 3d
       0.016386254 0.11675315 0.12458992 0.09973942
0001b0 1e 0e 0e 3e b4 12 b6 3d 9a 91 82 bd 12 1a d2 3d
       0.13872573 0.08890286 -0.063754275 0.10258879
0001c0 3a 11 36 3d fe f1 fb bc 3c 43 93 3d fc 90 c0 3c
       0.044450022 -0.03075504 0.07190558 0.023506634
0001d0 10 01 13 bb 1d 48 7c bc d9 39 22 be 1e 75 eb 3c
       -0.0022431053 -0.0153980525 -0.1584238 0.02874237
0001e0 76 81 cb 3c 45 2c c0 3d d6 02 ac 3c 88 7c 36 3d
       0.024842005 0.09383444 0.020997446 0.044552356
0001f0 48 1b 58 3c 75 be 62 3d 53 aa 4d bd 40 35 69 bd
       0.013190098 0.055357415 -0.050211262 -0.05693555
000200 39 2c b2 3d 4f 51 46 3d a2 72 4a 3d 5d 37 a4 bd
       0.08699841 0.048417386 0.04942573 -0.08018372
000210 a4 b2 03 bd a3 7b ad bd 9c 87 95 3a e2 58 51 3e
       -0.032152787 -0.084708475 0.0011408213 0.20444062
000220 d3 bd 5c bd 6c 5e 7a bc ba bf 4b 3d f7 5d 99 3d
       -0.053891968 -0.015281301 0.04974339 0.074886255
000230 0d 68 9e bb 22 55 84 bc 34 b8 25 bd 44 d1 db 3d
       -0.004834181 -0.016153876 -0.040458873 0.107332736
000240 63 6c c4 bc f3 87 79 3c 77 8b 6b 3c 5a 6e a7 bd
       -0.023977464 0.015230167 0.014376513 -0.08175345
000250 0b 15 13 3e f7 40 77 3d 64 da 02 bd 79 c2 89 bd
       0.14363496 0.06036469 -0.031946555 -0.06726546
000260 fb ce 55 bd 46 ca 8a 3d 76 da 81 3d e7 b6 a0 bd
       -0.052199345 0.06776862 0.06340496 -0.07847386
000270 15 15 b9 3d d8 86 74 3d a8 4c 38 bd c8 d3 36 bd
       0.09037224 0.05969891 -0.04499498 -0.044635564
000280 12 57 95 bc 66 9b 12 3c fb 7b cd 3d 55 73 73 3b
       -0.018229995 0.008948183 0.10033413 0.00371476
000290 07 5d fe 3c ff ab f3 3d 61 d6 41 3c 7e 9f 4d bd
       0.031050218 0.1189804 0.011830897 -0.05020093
0002a0 f6 73 94 3d ea 46 2d be 3c 80 19 3e 41 cd 4b bd
       0.0724868 -0.16921583 0.14990324 -0.049756292
0002b0 30 b2 cb 3b 65 b0 ab 3d 12 31 0d 3e 2e 9a 8a 3d
       0.00621631 0.08383254 0.1378825 0.06767689
0002c0 fc 34 34 bd 8f 13 ba 3a 68 9c 17 bc 42 8b bc 3c
       -0.043995842 0.0014196503 -0.009253599 0.023015622
0002d0 d6 bd f1 bd 22 60 4b bd da 54 39 3e 60 76 e2 3d
       -0.118037865 -0.049652226 0.18098775 0.110577345
0002e0 72 de dc bc 2f 0b 81 3d 1b 2b d2 b9 e9 c0 b6 3c
       -0.026961539 0.06300961 -0.00040086437 0.022308784
0002f0 04 04 cf 3d 03 96 63 bd 7b ef 86 bd 31 57 4f bd
       0.10108188 -0.055562984 -0.06588646 -0.05062026
000300 b0 99 ff bc b2 69 41 3d ce 7b e6 3d 6b 5b 2c 3c
       -0.031201214 0.04721994 0.112540826 0.010519843
000310 ca 3a eb 3d cb 06 8c 3d 93 71 db bc 4f 6d d0 3c
       0.114858225 0.06837233 -0.026787555 0.025442747
000320 60 ff 21 be aa fb 14 3e 82 00 15 3e 08 83 bc 3d
       -0.15820074 0.14549127 0.14550975 0.0920468
000330 ed 96 d8 3d e8 27 b4 3b 92 aa 1b 3d 69 54 94 bc
       0.10575662 0.0054979213 0.038004465 -0.018106656
000340 a6 d1 26 bd bc ca e8 3c 45 5b 3a be 94 4c a6 bd
       -0.04072728 0.028416984 -0.18198879 -0.08120075
000350 ce f9 95 bd 02 5e 6b be ad 74 dd 3d da a7 b7 bc
       -0.07323037 -0.2298508 0.1081327 -0.022418905
000360 be 54 10 3e 3f 8a 54 3e 7a fd ad bd 02 d8 0b 3d
       0.14094827 0.20755862 -0.084956124 0.034141548
000370 f1 ad a1 bd 13 d9 8f 3d 69 10 ba 3d ac 07 83 bd
       -0.07894505 0.070238255 0.09085161 -0.06397948
000380 9a e1 39 bc 42 b7 04 3e 76 6b 62 bd 52 a0 c6 bc
       -0.0113452915 0.12960532 -0.055278264 -0.024246369
000390 a0 71 70 3d a4 06 3a 3e 3f 80 e4 3d f3 70 35 be
       0.05870211 0.18166596 0.111572735 -0.17718868
0003a0 cc eb c0 bd 0f cd 7e 3d 16 f6 ef bd da 6c 00 bc
       -0.09419975 0.062207278 -0.11716859 -0.007838452
0003b0 aa d9 d4 bd 21 01 56 3d f2 9b 1f be 3c 41 0e be
       -0.103930786 0.05224717 -0.15586832 -0.13892072
0003c0 bf 15 82 be a4 18 8b bd 34 ee 70 bd 63 a1 cf 3c
       -0.25407216 -0.06791809 -0.05882092 0.02534551
0003d0 76 4f 9d 3d 44 01 40 3d a7 be 76 bd ea 47 c7 bd
       0.076811716 0.046876207 -0.060240414 -0.097305134
0003e0 97 0b 21 bd 41 cb 7f 3c cf a0 df 3d ac f7 96 bc
       -0.039317694 0.015612424 0.10919344 -0.018428646
0003f0 4b ef 13 3e 0f f3 d8 3d 57 ea 48 bd 4b fe 44 3e
       0.14446752 0.10593235 -0.04905161 0.1923763

fc1.bias f4 [300]
000000 e0 c8 9f 3d 9b b3 ae 3b 7c 48 aa 3b 24 f0 89 3d
       0.07801986 0.0053314692 0.005196629 0.06735256
000010 5d 93 e9 3d 93 02 88 3d a5 1a 29 3d 51 c2 be 3d
       0.114050604 0.06641116 0.041285176 0.09314407
000020 5d 7d a4 3d 99 94 cc 3d 55 7d 9c 3d 63 d0 9b 3d
       0.08031724 0.0998928 0.07641093 0.07608106
000030 18 93 d6 3d fb d9 0c ba da 6f 9a 3d ae 6d 5a 3c
       0.10477275 -0.0005373058 0.07540865 0.013331814
000040 77 32 10 3d 53 51 b1 3d e4 12 76 3d bd f4 97 3d
       0.035204377 0.086580895 0.06007661 0.07419727
000050 42 a2 cd 3d 8b 36 c9 3d 2e c4 86 3d 38 60 63 3d
       0.10040714 0.09824856 0.06580387 0.055511683
000060 66 d4 62 3d 7a 9f a8 3d 51 2c 08 3d 95 d7 bc 3c
       0.05537834 0.08233543 0.03324539 0.023052016
000070 79 2b 48 3d b7 82 5b 3d 4a b0 b3 3d 0c 8c a9 3d
       0.048869584 0.053591456 0.08773859 0.08278665
000080 8f 99 c6 3c 1f 1e cf 3d c6 1a cd 3c 5f 1e 8a 3d
       0.024243144 0.10113167 0.02503718 0.06744074
000090 9e bb 9b 3d f6 42 6d 3d 37 10 b5 3d e9 4f 91 3d
       0.076041445 0.057925187 0.08840983 0.0709532
0000a0 bc 59 8b 3d da 96 df 3d c1 62 f3 3c 1e 99 c3 3d
       0.06804225 0.109174445 0.029710175 0.09550689
0000b0 7c 49 2d 3d f2 64 c3 3d b0 40 4a 3d c0 b7 8c 3d
       0.04230641 0.09540738 0.049378097 0.06870985
0000c0 df a2 60 3d fc 18 4d 3d 39 80 b4 3c 86 2d af 3c
       0.054842826 0.050072655 0.022033798 0.021384012
0000d0 be f2 73 3d d6 04 a1 3d 7d ed 07 3e 58 84 0a 3d
       0.05955767 0.078622505 0.13274188 0.03381762
0000e0 a9 f1 1b 3d 45 cf d5 3d 52 3e bf 3d 37 29 24 3c
       0.038072262 0.10439924 0.093380585 0.010019592
0000f0 8c 2b 43 3d 2a 46 93 3b e7 94 90 3c 8b cb c7 3d
       0.04764895 0.004494448 0.017649127 0.097556196
000100 35 df 87 3d ba d7 ef 3c 2f 55 31 3d 54 d2 cd 3d
       0.0663437 0.029277671 0.043294128 0.100498825
000110 c6 68 51 3d fe ef c4 3d ba b7 9e 3c ce 08 91 3d
       0.05112531 0.096160874 0.019374717 0.070817575
000120 55 fa 01 3c b4 2d 53 3d b1 45 d1 3d f0 cb 4b 3d
       0.007933219 0.051557258 0.10218371 0.049755037
000130 6a 1c bb 3d a0 8a a8 3c 8e 59 75 3c c4 10 1f 3c
       0.09136279 0.020573914 0.014974965 0.009708587
000140 8d 55 31 3d 00 2c b9 3d 2a 89 27 3d 1a ab 49 3d
       0.04329448 0.090415955 0.040902294 0.04923544
000150 72 25 0a 3c 42 c5 18 3d d4 cf b8 3d bf 66 91 3d
       0.008431779 0.037297495 0.09024015 0.070996754
000160 c5 0a f9 3c b0 7f b2 3d 35 a3 ba 3d c0 11 9c 3d
       0.030400643 0.08715761 0.091131605 0.07620573
000170 5e 17 a7 3d e4 82 78 3d 40 91 b6 3d 77 50 ab 3b
       0.08158754 0.060671702 0.08914423 0.005228098
000180 2c 9d c4 3d 67 15 8f 3d cf 94 b5 3d 62 ff ed 3b
       0.09600291 0.06986504 0.088662736 0.00726311
000190 55 dd 6d 3d 24 2c 7d 3d 1d 46 82 3d 66 1c 6f 3c
       0.058072407 0.061809674 0.06361029 0.014594173
0001a0 fa e5 59 3d d9 42 bf ba 98 31 03 3d 7d dc 50 3d
       0.05319784 -0.0014592066 0.03202972 0.050991524
0001b0 a8 d9 7d 3d 40 0e 99 3d 48 cb bc 3d e9 59 ba 3d
       0.06197515 0.07473421 0.0921846 0.0909918
0001c0 da 90 bf 3d c0 76 8e 3d 4c b5 4b 3d c4 9f a2 3d
       0.093538 0.069562435 0.049733445 0.07940629
0001d0 1b 8f c1 3d 29 2a 74 3d 7e 5e f7 3d 32 a4 a2 3c
       0.09451123 0.05961052 0.1207857 0.019853685
0001e0 75 05 a9 3c c2 09 f4 3d d6 99 b6 3d f7 dc b0 3d
       0.020632485 0.11915924 0.089160606 0.08635896
0001f0 d3 07 a8 3d 55 a4 1e 3d 0d b3 38 3d df 03 d7 3d
       0.08204617 0.038730938 0.04509263 0.10498785
000200 8b fa dd 3d e8 56 de 3d 52 da 93 3d 51 1e 32 3d
       0.10838803 0.1085642 0.07219376 0.043485943
000210 17 9b 3c 3d e9 a4 3f 3d 03 8e ea 3c 9a a9 37 3d
       0.046046343 0.04678813 0.02863217 0.04483948
000220 ec ec 75 3d b3 23 65 3d d7 c5 c4 3d d3 cb 65 3d
       0.0600404 0.05594225 0.096080475 0.056102585
000230 e5 32 2b 3d ee 23 8b 3d 7c 28 b9 3c fb be bd 3d
       0.041796584 0.067939624 0.022602312 0.09264942
000240 60 74 bf 3d 45 49 ad 3d 3f e4 cb 3d a2 b5 b5 3d
       0.09348369 0.08461241 0.09955644 0.08872534
000250 74 52 99 3d ca e6 6b 3c 5e 5f 89 3d 24 28 69 3d
       0.0748643 0.014398286 0.06707643 0.056923047
000260 cb cd bc 3c ac 90 5d 3d 98 2e 83 3d 2a 90 c8 3d
       0.023047348 0.054093048 0.064053714 0.09793122
000270 0a 1c 4c 3d 44 a0 9f 3d a0 56 c8 3d 7e 16 b6 3d
       0.049831428 0.0779424 0.097821474 0.08891009
000280 8c 1c 18 3d 97 50 68 3d 6d e6 34 3d b8 56 98 3c
       0.0371366 0.05671748 0.044165064 0.018596038
000290 f4 22 84 3d 84 db 63 3d 7b e9 4d 3d 42 57 80 3d
       0.06451979 0.05562927 0.050271492 0.06266643
0002a0 4f 23 a9 3d b1 f9 e6 3d 4a 14 3c 3d 34 b2 90 3d
       0.08258688 0.112780936 0.045917787 0.070652395
0002b0 ef 9c 3b bb 44 ad 8c 3d 7f 1b e3 3d a5 49 fd 3c
       -0.0028627475 0.06868985 0.11089229 0.030918906
0002c0 62 61 0c 3d e0 38 b0 3c bc d8 8c 3d f3 ef d8 3c
       0.03427256 0.021511495 0.06877276 0.026481604
0002d0 85 65 08 3d 82 b8 00 3e 13 73 93 3c ce 8b 44 3d
       0.03329994 0.12570384 0.017999208 0.04798489
0002e0 d2 99 b1 3d 61 67 68 3d d4 4c 63 3d 62 a4 ba 3c
       0.08671917 0.056739215 0.05549319 0.022783462
0002f0 7e 97 d9 3c 0c 71 c0 3c d0 45 0a 3d 98 26 40 3d
       0.026561495 0.023491405 0.033757985 0.046911806
000300 bd 9e d8 3d bd 32 98 3d b8 c6 34 3d d9 bc 6c 3d
       0.10577152 0.074315526 0.044134825 0.057797287
000310 b3 1f d2 3d 61 84 74 3d ae 10 d4 3d 9c 51 45 3d
       0.102599524 0.05969656 0.10354744 0.048173532
000320 c9 5a 27 3d b2 6b d3 3d a2 c8 81 3d 08 06 14 3d
       0.040858064 0.103232756 0.06337096 0.036138564
000330 55 19 ed 3d 36 9b 85 3d cb 1d b7 3d c5 b0 9e 3d
       0.11577097 0.06523745 0.089412294 0.0774856
000340 aa da 51 3d 98 6f fb 3c aa 42 f2 3d 32 05 00 3d
       0.051233925 0.03069286 0.118291214 0.031254955
000350 26 30 90 3d 3b 08 c6 3d 31 ec d2 3d fc 4f ce 3d
       0.070404336 0.096695386 0.10298956 0.100738496
000360 f1 59 4b 3d 3e 17 51 3d b7 36 60 3d 30 00 b5 3d
       0.04964632 0.051047556 0.05473968 0.088379264
000370 16 56 f7 3c bd c8 cf 3d bb 2d c0 3d d3 a9 f1 3c
       0.030192416 0.1014571 0.093837224 0.029499924
000380 99 17 7a 3d c1 cc 15 3d 40 75 e3 3d 81 05 f1 3c
       0.06105766 0.03657222 0.11106348 0.02942157
000390 a9 9b c2 3d 4b 90 64 3c 33 c8 01 3d d2 49 e5 3d
       0.09502346 0.013950418 0.031685065 0.11195721
0003a0 44 4c be 3c 4f 06 a9 3d 86 ae 84 3d 37 d1 d9 3d
       0.023229726 0.082531564 0.064786 0.10635608
0003b0 b6 e3 78 3d 88 58 83 3d 32 04 f1 3d 41 07 c3 3d
       0.060764037 0.0641337 0.11768378 0.09522868
0003c0 b5 0c c6 3d 3b 72 e2 3d aa ca 9c 3d b2 1d 35 3d
       0.096703924 0.11056944 0.076558426 0.044217773
0003d0 36 1e d2 3d 53 7c a9 3d 70 4f 07 3d f3 bc d4 3d
       0.102596685 0.08275666 0.033034742 0.10387602
0003e0 cd a0 c8 3d 7f 42 b5 3d c9 1f ac 3d bc a9 10 3d
       0.09796295 0.08850574 0.084045 0.03531812
0003f0 f0 e6 e0 3d 28 f1 34 3d 2f bb bf 3d 17 4b 03 3d
       0.10981548 0.044175297 0.09361874 0.032054033

fc2.weight f4 [200, 300]
000000 c0 b3 16 3e 87 a4 9b 3d 8c 22 8c bb 13 ac 2d be
       0.14717007 0.075997405 -0.0042765792 -0.16960172
000010 1c 9d 04 3e ec c5 9c 3e a0 17 11 be 0b 4e fe 3e
       0.12950557 0.30619752 -0.14169168 0.49668917
000020 61 b2 59 be 93 04 9f 3e 99 6b 83 be c5 c0 23 3d
       -0.21259452 0.31058177 -0.25668028 0.03997876
000030 7e b5 66 bd 9f 4e df bd 1b 1e c9 3d df d5 d7 3d
       -0.05632543 -0.10903668 0.09820195 0.105388395
000040 1b 0a cb bc 4e 53 e1 bd b0 c7 9a be 3b 83 cb bc
       -0.024785092 -0.11002217 -0.30230474 -0.024842849
000050 81 d1 84 3d 73 0c 73 bc f6 b4 82 3e aa 3b 5c 3e
       0.06485272 -0.014834511 0.25528687 0.21507135
000060 69 7a 4d 3e 8f c5 cd be bf 85 9f bc b8 8d 38 3f
       0.20066227 -0.40189788 -0.019472955 0.72091246
000070 e3 a1 fb 3d 70 63 5e 3e ca 62 82 3d e1 af 2a bd
       0.12286737 0.2171762 0.06366499 -0.041671637
000080 41 a2 90 bd 07 4f fc 3d 9c e3 9d 3d 3b 52 81 be
       -0.070621975 0.12319761 0.07709429 -0.2525805
000090 5a 9a d1 3d 28 e6 b8 bd e9 bd a4 be 00 45 c8 bc
       0.10234518 -0.09028274 -0.3217614 -0.024446964
0000a0 f2 99 03 3e 67 83 8b 3e 9d 57 26 3e 84 81 9a 3e
       0.12851694 0.2724869 0.1624436 0.30176938
0000b0 4a 2d 53 3e 61 1b 70 3c 06 7a a7 3d 0a ef 3e bd
       0.20622745 0.014654965 0.08177571 -0.046614684
0000c0 f2 7f ca 3e c3 dd 09 be f6 b9 88 3d fd 71 7e bd
       0.3955074 -0.13463502 0.06676094 -0.062120426
0000d0 6e bc 34 be 7f 5c 87 3e d3 15 71 3e a4 ee 39 be
       -0.17650005 0.26437756 0.23543482 -0.1815744
0000e0 58 2c f9 3d e2 b3 16 3e 4c 4f 34 3e 59 03 62 3e
       0.12166661 0.14717057 0.17608374 0.2207159
0000f0 6a 73 81 3e ad c6 a7 3d ca f7 6b 3e 94 6d d4 3d
       0.25283366 0.08192191 0.23043743 0.10372463
000100 2d 22 fa bc 51 53 1d 3e 00 f1 95 bd b1 19 c2 3d
       -0.030533874 0.15363814 -0.07321358 0.094775565
000110 a0 b8 a4 3c 82 bf bf 3d 4d 3e dc bc 3b 93 4c 3c
       0.020107567 0.09362699 -0.026885176 0.012486274
000120 98 6d 91 3e b9 c2 7d 3c 0b fe 04 3e 47 ed 22 3e
       0.28403926 0.01548832 0.12987535 0.15910827
000130 de 7e 08 3e dd d3 6b be 90 8f 28 bc 76 55 6e 3e
       0.13329646 -0.23030038 -0.010288134 0.23274788
000140 aa 57 29 bd d4 7e 1b be 2d 66 81 3e 03 d4 25 bd
       -0.04134337 -0.151851 0.25273266 -0.040485393
000150 84 ba 84 3d 77 84 ef bb 18 86 16 3c 64 7f 88 3d
       0.064808875 -0.007309492 0.009187244 0.06664923
000160 fa 40 d0 3c 38 93 94 bd 44 f9 ec bd 35 4a 49 3e
       0.025421608 -0.07254642 -0.11570981 0.19657214
000170 68 17 3b 3d 31 38 4b be 2f 4f e5 3d 20 c5 c2 3e
       0.04567662 -0.19845654 0.11196744 0.3804102
000180 e4 72 7d bc 10 39 0b bc 6b 67 60 bd fb a9 8f 3c
       -0.015469287 -0.0084974915 -0.054786127 0.017537108
000190 e8 48 9d bd ed 36 51 bd 32 83 95 3e 46 0b 0a be
       -0.076799214 -0.051077772 0.29201657 -0.13480863
0001a0 11 a3 0c be ba 04 86 bd 26 9f 38 bd fa ed 8c 3e
       -0.1373408 -0.0654387 -0.04507365 0.27525312
0001b0 7e 99 86 3e 93 79 70 3d 23 0b 21 be be 87 53 bd
       0.2628898 0.058709692 -0.15726905 -0.051643126
0001c0 96 5f fe 3c a1 06 5c 3d e5 88 77 bd 83 8d 3e 3e
       0.031051438 0.05371726 -0.060433287 0.1860867
0001d0 f9 eb 73 3e cf 75 11 be e6 b1 86 3d ec 7e 46 3e
       0.23820485 -0.14205097 0.065769 0.19384354
0001e0 2a 1c 9e be eb b3 db 3e 12 03 b2 be 4c a1 e4 bd
       -0.30880862 0.42910704 -0.34767967 -0.111635774
0001f0 fd 69 bd 3d db 8f 2b 3e e4 a0 a5 3d bd 69 b1 3c
       0.09248731 0.16754095 0.08087328 0.021656865
000200 c5 5f c6 bc 24 5b 34 3e b1 3d e4 3d 27 5d a4 bb
       -0.024215588 0.17612892 0.11144579 -0.0050159874
000210 41 89 4f 3d 28 01 89 3e e4 46 2a 3e 4e e9 27 3d
       0.050668005 0.26758695 0.16628605 0.04099398
000220 a6 ea a0 3e 65 58 03 be bb 7d bc bd 69 ac 1c 3d
       0.31429023 -0.12826689 -0.09203669 0.03825036
000230 ce 70 52 be d0 69 29 3e bc 62 72 be 92 cb 32 3d
       -0.20550844 0.1654427 -0.23670477 0.04365117
000240 af ed 31 bd d0 c9 07 be 8c 45 7a 3e fa bf 45 bd
       -0.043439563 -0.13260579 0.24440593 -0.048278786
000250 2b 13 8f be 4b 7d 31 be a8 35 0f 3e 73 3a 46 3e
       -0.27944311 -0.17332952 0.13985312 0.19358234
000260 ff 17 6c 3d 35 67 0f ba 7b 8d a7 bd 1a f5 6c 3d
       0.057640072 -0.0005470396 -0.08181282 0.057850935
000270 f6 57 5b be 8a d1 fe 3d 49 8c 8a be 25 62 fb bc
       -0.21420273 0.1244231 -0.27060154 -0.030686447
000280 95 fd f2 3d c0 f0 43 3e ed 10 bc bd 50 0b 5e 3e
       0.11864773 0.19134808 -0.09182916 0.21684003
000290 50 52 e7 3d 29 64 a6 be 90 09 53 bd 01 85 2a bd
       0.11294997 -0.3249829 -0.05152279 -0.04163075
0002a0 b5 12 7e 3e 04 d2 b4 3e 30 75 2e 3e fb c3 8f bd
       0.24811824 0.3531648 0.17036891 -0.07019802
0002b0 7a b3 67 bd 07 08 57 3e 7e 28 c3 3d ab 51 5f 3e
       -0.056567647 0.20999156 0.09529208 0.21808498
0002c0 aa d0 06 3e e3 8a 66 be c8 e6 cd 3d 6b b5 11 3e
       0.13165537 -0.22513919 0.10053784 0.14229362
0002d0 b2 60 6f bd 05 ff 31 3e 46 51 16 be c9 6b 07 3e
       -0.058441825 0.17382438 -0.14679441 0.1322471
0002e0 31 bd 91 3d c6 39 9b be b2 60 48 3e 0f 55 7a be
       0.071161635 -0.30317515 0.19568136 -0.2444651
0002f0 7b 6e 13 3e 53 3e e8 bc 1e 4c a1 3e 60 93 dc 3c
       0.14397614 -0.028350031 0.31503385 0.026925743
000300 ef 04 87 bd 50 1a d7 3c 85 6a 4b be e3 a6 82 be
       -0.06592738 0.026257664 -0.19864853 -0.2551795
000310 28 ed d0 3d a7 7b 22 be ca 40 4c 3e 74 64 b0 3d
       0.10201484 -0.15867482 0.1994659 0.0861291
000320 b0 b4 84 bc 81 0d 38 3e b4 83 39 3e 8e b4 ba bd
       -0.01619944 0.17973901 0.18116647 -0.09116469
000330 33 ab 5f bb b5 ae b4 3d 6e 53 8b 3d 6c 37 5e 3d
       -0.0034129142 0.08822385 0.06803022 0.054252073
000340 95 b6 40 3e 86 8e a5 3e a2 f4 23 be a0 d0 fe 3d
       0.1881965 0.323353 -0.16011289 0.12442136
000350 ac 3c 19 3e c6 9f 1c bd 73 41 00 3d 7e 87 ca 3e
       0.1496455 -0.03823831 0.031312417 0.39556497
000360 32 08 c3 3a 66 ea d7 3c d8 36 83 bd ce 22 23 3c
       0.0014879762 0.026356887 -0.06406945 0.009957029
000370 bc 8d 1a be cf f9 02 be 6c 58 33 3d f5 d9 bd 3d
       -0.1509313 -0.12790607 0.043785498 0.09270088
000380 19 61 b5 bd 05 5d 72 3c 44 1c 1e 3e 91 c8 89 3d
       -0.088564105 0.014792685 0.1544047 0.06727708
000390 05 d5 71 3d 85 e2 98 3e 0c 99 d3 3d 63 df 7c 3c
       0.059041042 0.2986032 0.10331926 0.015434119
0003a0 d8 47 5f 3c 4f 27 51 bb 25 23 33 3e 52 d6 46 3e
       0.013627969 -0.00319143 0.17493875 0.19417694
0003b0 8c 17 f7 3e 7a 3e 4b 3e 3e 3f bd 3e ad 58 71 be
       0.48260152 0.19848052 0.36962312 -0.23568983
0003c0 0c 12 10 be 88 29 f5 ba f2 e0 20 bc 8c b5 42 bd
       -0.14069384 -0.0018704394 -0.009819256 -0.047536418
0003d0 7b 3a ff bd f1 0c ae 3d 62 3e 2a 3d c6 52 d3 3d
       -0.12462326 0.08498562 0.0415634 0.10318522
0003e0 4b c9 67 3e a7 d0 a0 3e a1 cf ce 3e f6 a8 c8 3e
       0.22635381 0.3140919 0.40392783 0.39191407
0003f0 1c 0d 87 bd 32 8c 4c be a9 21 32 3e f1 ae fe 3d
       -0.06594297 -0.19975355 0.17395653 0.12435711

fc2.bias f4 [200]
000000 ab 30 f5 bc 0b 45 c7 3d 95 1a ad 3c 78 5a c8 3d
       -0.029930433 0.09729966 0.02113084 0.097828805
000010 36 0a 0d bd 4a e4 32 3d 59 05 72 3d 2b 2d cc 3d
       -0.034433566 0.043674745 0.05908713 0.099695526
000020 3e 7a 6e 3d 8d 9d 56 3d a1 a0 b7 3d 5b 38 c1 3c
       0.058222048 0.052396346 0.089661844 0.023586443
000030 ca 08 5d 3d 8b d4 04 3d 9d b3 8d 3d d1 c4 98 3c
       0.05396346 0.03242926 0.06919024 0.018648537
000040 d0 18 06 3d 71 6b 38 3d 48 22 2b 3d c2 b1 9c 3d
       0.032738507 0.04502434 0.04178074 0.07651092
000050 4f 9b ac 3b c7 0c 60 3d 25 fd 1c 3d d1 16 0b bc
       0.0052675377 0.054699685 0.038327355 -0.008489327
000060 64 64 32 bd 04 1d 4f 3d db b3 c2 bc 05 bf a4 3d
       -0.04355277 0.05056478 -0.023767402 0.080442466
000070 d2 79 e3 3d b1 01 25 bd a1 90 6a 3d d5 af ff bb
       0.1110722 -0.040284816 0.057266835 -0.0078029432
000080 9c d9 77 3d 3b c5 78 bc be 6d 44 3d 5a 67 bf 3d
       0.060510263 -0.015183742 0.04795622 0.093458846
000090 a4 61 90 ba c5 09 b8 ba 08 a3 26 3d 0e 6d 35 3d
       -0.0011015427 -0.0014040997 0.040682822 0.044293456
0000a0 80 d5 c2 3d 89 a2 5a 3d 92 18 a0 ba a6 5e 02 bd
       0.09513378 0.05337766 -0.0012214354 -0.031828545
0000b0 50 2b b3 3d 10 e1 c7 3d 76 66 7f 3b 4d 1d f5 3c
       0.087484956 0.09759724 0.0038970984 0.029921198
0000c0 c4 06 b5 bc 21 60 3e 3d 8f 32 ee 3c 7a fc e1 3c
       -0.022097953 0.046478394 0.029076843 0.02758621
0000d0 b7 65 90 3d 74 b9 5b 3d 71 ed 5b 3d 11 78 cc 3d
       0.070506506 0.05364366 0.05369324 0.09983838
0000e0 d7 a8 c6 3d cd 31 c1 bc e0 9c 01 bd 62 4c d3 3d
       0.097001724 -0.023583317 -0.03164375 0.10317303
0000f0 05 1f 06 3d d1 cb db 3d 7e 87 11 3c 33 9b 05 3d
       0.032744426 0.10732234 0.0088824015 0.032618713
000100 74 9e 07 3e c9 2d cf 3d 17 ac 5b 3d f4 0a ff 3d
       0.13244039 0.10116155 0.053630915 0.12453261
000110 2e 18 a0 3d 9b dd af 3d 42 37 cb 3c f3 48 b2 3c
       0.07817112 0.0858719 0.024806622 0.0217633
000120 83 79 da 3d 0d b5 51 bd 75 b9 dd b8 5c 8d 30 b9
       0.10667708 -0.051198054 -0.00010572645 -0.00016837328
000130 6a 0d 39 3d 51 3e 1b 3e 92 03 34 3d 28 fd a7 3d
       0.04517881 0.1516049 0.043948717 0.082025826
000140 76 82 ee 3c 5b cb e0 3d bf 9b 66 3d 4f 6d cc 3d
       0.029114943 0.10976287 0.056300875 0.099817865
000150 fa e6 cd 3c 74 6b eb 3d 91 49 74 3d a9 0e ae 3d
       0.025134552 0.114951044 0.05964047 0.0849889
000160 b8 7b 84 3d 0d 0d 68 3c 4d 3d 35 ba 89 5d 8d 3c
       0.0646891 0.014163268 -0.00069137366 0.017256515
000170 c3 6b 00 bd ed d0 8d 3d f6 49 33 3d 47 36 b8 3d
       -0.03135277 0.06924615 0.043771707 0.089947276
000180 c2 44 95 3d f2 4a 6d 3d 23 43 bb 3d 87 bf 9a 3d
       0.07288505 0.0579328 0.09143665 0.07556062
000190 4d 10 cc 3c c4 f9 7a 3b 70 5f c7 3c 5d bc 38 3b
       0.024910117 0.0038295845 0.0243375 0.0028188445
0001a0 d1 d5 ee 3b db 8a c2 3d 79 e6 5e 3d 07 03 8a 3d
       0.0072886725 0.09499141 0.054419015 0.06738859
0001b0 8f b3 67 bc 09 90 b9 3c 2f 5b a4 3d df 07 79 bc
       -0.014141931 0.02265169 0.080252044 -0.0151996305
0001c0 c9 9b 23 3d be 22 94 3d 82 90 46 3b 05 21 2e 3c
       0.03994349 0.07233189 0.0030298536 0.01062799
0001d0 a5 a5 30 3d ea 93 95 3c 6c e9 19 bc f6 2d dc 3c
       0.04312672 0.018259007 -0.009394031 0.026877385
0001e0 e4 4a 5f 3d 2f 5a 95 3d 5e ae 46 3d f9 05 e5 3d
       0.05451478 0.07292592 0.048506133 0.1118278
0001f0 9a a1 1b 3d a1 ba b7 3d 55 42 6f 3d ee fd 06 bd
       0.037995912 0.089711435 0.05841287 -0.03295701
000200 30 54 30 3d f0 43 4e 3d 6e 35 d6 3d ea 4f 3c bc
       0.043049037 0.05035776 0.1045941 -0.011493662
000210 df 56 8b 3c 92 ce 93 3d a2 e9 42 3d 03 76 eb 3d
       0.017009197 0.072171345 0.04758609 0.11497118
000220 06 c3 6b bc 2d 72 3b 3b 3f 6f cc 3d 2d 4e d0 3d
       -0.014389759 0.002860199 0.09982156 0.10171161
000230 93 96 99 bc 36 6d fc bc 39 60 c3 3b d7 16 87 3d
       -0.018748557 -0.030813795 0.0059623984 0.06596153
000240 ed 4d b2 3d 3b b5 e3 3d f9 7e 85 3d 2a 7e 6c 3d
       0.087062694 0.11118551 0.06518359 0.057737507
000250 16 09 42 bc 01 d8 99 3d 19 53 79 3d 72 87 97 3c
       -0.011842987 0.075119026 0.060870264 0.018497203
000260 32 c9 54 bb cd 49 e9 bc e7 e0 6b 3d 77 fe 82 3d
       -0.0032468555 -0.028477574 0.05758753 0.063961916
000270 c0 21 67 3d d2 bc 61 3c 23 fb a4 3d 2e 5e d3 3d
       0.05642867 0.013777928 0.08055713 0.10320698
000280 6c 7a 44 3d c9 c8 81 3d 48 69 22 3d 1e 45 b8 3d
       0.047968313 0.06337125 0.039651185 0.08997558
000290 39 06 07 3d 52 b8 80 3d 9b 61 67 3d a8 cc 07 3d
       0.03296492 0.06285156 0.05648957 0.03315416
0002a0 b3 47 37 3d 5c 74 f4 3c 41 e5 fa 3c cd 7c e3 3d
       0.044746112 0.02984064 0.030626895 0.11107788
0002b0 ce 0c 19 3d 99 e4 93 3d d0 36 91 3d 57 26 31 3c
       0.037365727 0.07221336 0.07090533 0.010812364
0002c0 ce fd 17 3c 66 74 83 3d e8 a7 84 3d 85 5f c1 3c
       0.00927682 0.064186856 0.06477338 0.023605118
0002d0 74 12 47 3d f6 3e a1 3d b5 b5 0c 3d 8f 28 46 3d
       0.048601583 0.07873337 0.034352977 0.048378523
0002e0 46 9c 63 3d ad 31 02 3e b6 a6 19 3d fa c1 a8 bd
       0.055568956 0.12714262 0.037512504 -0.08240123
0002f0 55 70 ec 3d 60 92 fc 3c 73 9a bc 3d 86 56 be bc
       0.11544863 0.030831516 0.09209146 -0.023234617
000300 78 08 2c 3d 7f c7 df 3d c8 b1 93 3d b5 f2 c1 3d
       0.042000264 0.10926723 0.072116435 0.09470121
000310 b5 e8 ed 3d 82 69 9e 3d 22 45 12 bb e1 38 a3 3d
       0.11616651 0.07734968 -0.0022319038 0.07969833

fc3.weight f4 [52, 200]
000000 59 9b 41 3c 0f 2c 5c bd d8 ff b1 bb fe 95 51 3d
       0.011816823 -0.053752955 -0.0054321103 0.051168434
000010 3d 13 e0 3c 77 03 1b bd 41 56 17 bd e2 c6 93 bc
       0.027352924 -0.0378451 -0.036947493 -0.01803917
000020 d4 0b 72 bd 67 fb 04 3c f3 11 90 3d 1d f9 69 3b
       -0.05909331 0.00811658 0.070346735 0.0035701462
000030 7e 30 9c bd 1c 4f e9 3b 35 b1 a6 bd 16 2d 73 bd
       -0.07626437 0.0071200263 -0.08139268 -0.05936917
000040 a9 28 40 3b 43 b0 2a 3c 75 72 f1 3c 1a 78 39 3d
       0.002932111 0.010418001 0.029473523 0.045280553
000050 f2 91 1d bd b2 44 41 3d 63 d8 0d bd 8c 10 b8 bc
       -0.038469262 0.047184654 -0.03463019 -0.022468828
000060 d5 e2 5a bd 37 c8 a2 3c c9 dd 08 bd ff ef 60 3d
       -0.05343898 0.01987086 -0.033414636 0.054916378
000070 f6 fb f4 3b 21 ef 87 bd e4 19 78 bd 4e 05 d3 3c
       0.007476325 -0.06637407 -0.060571566 0.025759365
000080 e2 79 5a bd 22 d8 3b bc 08 46 46 bd fb ec 4d 3c
       -0.053338893 -0.011465104 -0.04840663 0.012568708
000090 6f 0d ef bb 50 6c 50 bd 46 98 97 bb 15 9f 52 3d
       -0.0072953026 -0.050884545 -0.0046263067 0.051421244
0000a0 23 a5 f4 bc d3 c5 4e bd d4 4f 2c 3d d6 6f ee 3c
       -0.0298639 -0.05048163 0.042068318 0.029106062
0000b0 29 ce 2c 3d 1d 21 37 3d f9 84 7d bd e0 2d 34 3d
       0.042188797 0.044709314 -0.06189439 0.043989062
0000c0 e5 87 35 3d ba a3 62 3d 93 d6 81 bb cf 5f b7 bd
       0.044319052 0.055331923 -0.003962347 -0.08953821
0000d0 d4 bf 83 bd 20 c6 2d 3d c0 65 77 bd 18 2e ca 3c
       -0.06433073 0.042425275 -0.06039977 0.024680182
0000e0 fa 42 1f 3d b8 b5 d5 3c a1 35 30 bd 50 68 c4 3c
       0.038882233 0.026087627 -0.043019895 0.023975521
0000f0 75 9a 81 3d c9 ce 85 bd e9 68 19 3d d0 e5 1b 3d
       0.063282885 -0.06533582 0.037453566 0.038060963
000100 0b 04 64 3d 22 11 e3 bc 81 04 66 3d 48 1e 7c 39
       0.05566792 -0.02771813 0.05615664 0.00024043873
000110 48 a2 4b bd 78 ab 43 3d 16 68 08 bd 04 1e 1b bd
       -0.04971531 0.047770947 -0.03330239 -0.037870422
000120 58 fb c1 bc 03 82 d5 3c 36 81 3e bd 3a 01 03 bd
       -0.02367942 0.026062971 -0.046509944 -0.03198359
000130 0b ae 44 bd d2 e5 44 3d 71 4e 40 bb ec 9a ef 3c
       -0.048017543 0.048070736 -0.002934363 0.029248677
000140 c9 8a f3 bb 51 2a a9 3c cd fa 21 3d d3 d1 d4 3c
       -0.007432316 0.02065006 0.039545823 0.025978958
000150 6f f4 e0 3c 75 46 16 3d a3 6c 2f bd e6 11 03 3d
       0.027460305 0.036688287 -0.042828213 0.03199949
000160 d5 40 49 3d 64 14 67 3d a9 83 80 bd de 22 9d bd
       0.049134094 0.05641593 -0.06275112 -0.07672666
000170 49 77 b7 3c df f1 4d 3d df 36 68 bc 28 67 50 bc
       0.022395747 0.050279494 -0.014173239 -0.012719907
000180 19 31 b9 3c 16 6e ef 3c 18 14 8b bd d0 43 03 bd
       0.02260642 0.029227298 -0.06790942 -0.032047093
000190 cd a1 7c bc ce 22 80 bd 15 a8 dd 3c 10 c3 09 3d
       -0.015419436 -0.062566385 0.027057687 0.03363329
0001a0 81 d9 1e 3c 25 ee 74 bd b6 25 08 3d b1 18 74 3d
       0.009695412 -0.059797425 0.03323909 0.05959386
0001b0 b5 50 9e bd 93 06 8a bd 4b 37 0a bd 05 4e 9a bd
       -0.077302374 -0.06739535 -0.033744138 -0.07534412
0001c0 84 29 7f 3d 3b 2f 33 3d 9f 91 15 3d 4e c9 35 3d
       0.06229545 0.043746214 0.03651583 0.044381432
0001d0 51 f3 93 3d 73 1c b0 bc 4a 25 0a 3d 47 64 4e bc
       0.07224143 -0.02149794 0.033726968 -0.01259715
0001e0 6c 4c 3f 3d 72 cd 87 bd 18 38 69 3d 96 09 e8 3c
       0.04670374 -0.066309825 0.05693826 0.028324883
0001f0 ff 4f 5e 3c 0b b7 b2 3c 94 69 21 bc 07 18 f8 3c
       0.013568877 0.021815797 -0.009851832 0.030284895
000200 41 fd 9d bd 00 81 56 bd 11 5c 72 bc ed 9e 46 3d
       -0.0771432 -0.052369118 -0.014792458 0.048491407
000210 8f 33 24 3b 4a 58 58 3d 4f e6 8c 3b d9 dd 5f 3d
       0.0025055145 0.052818574 0.004299916 0.05465493
000220 da e8 8e bd 4e 6d e3 bc d7 94 00 bb 1a ea 1a bd
       -0.06978007 -0.027762081 -0.0019619965 -0.037820913
000230 b5 81 ca 3c 59 0b 27 3c d2 96 99 3c 4f ad 33 3c
       0.024720052 0.010195577 0.018748675 0.010966613
000240 53 db 33 bd ef d4 1b bc a3 b6 73 3d 2e dc fd 3c
       -0.043910336 -0.009511217 0.059500348 0.030988779
000250 48 ad 8d 3d 77 14 f9 bc 4c 5a c4 3b dd 7b 63 bd
       0.069178164 -0.030405266 0.0059922095 -0.055538047
000260 7a 66 b2 3c 0d 91 1f bd 2b bd 90 bd f9 57 83 3d
       0.02177738 -0.03895669 -0.07067331 0.06413264
000270 50 e0 85 bd 68 53 6d 3c 06 3c 3d bd b3 f8 da bc
       -0.06536925 0.014485218 -0.04619982 -0.026729917
000280 c9 91 c4 bc 3c 12 20 3d df 97 07 3d d4 2f 59 bd
       -0.023995297 0.03907989 0.03310382 -0.053024128
000290 ce d6 a7 3b 04 fb a7 3c af e1 9b ba 3b 01 73 3d
       0.0051220423 0.020505436 -0.001189282 0.059327345
0002a0 35 7c 84 bd f6 93 4f 3d a6 e8 3d bb ab 95 23 3d
       -0.06469003 0.050678216 -0.002897778 0.039937656
0002b0 dc ed 59 3d 93 18 26 3d 20 f1 fd bc ce 79 4f bc
       0.053205356 0.04055078 -0.030998766 -0.012663318
0002c0 e3 43 51 bd a7 4c 8e bc 86 b1 99 bd c0 a2 25 3c
       -0.051090132 -0.017370535 -0.07504563 0.010109603
0002d0 9b 42 19 bc 97 e0 4f bd 59 16 90 bd a2 7d 3a 3c
       -0.009354259 -0.050751295 -0.070355125 0.011382492
0002e0 fe 28 0f 3d 18 cd 8b 3c f2 24 3d bd 1d 91 2d 3d
       0.034951203 0.01706557 -0.046177812 0.04237472
0002f0 c3 17 e1 bc cc ce 49 3d 42 1b 84 bd ed a7 ca bc
       -0.02747715 0.049269482 -0.064505115 -0.024738276
000300 a2 f5 a2 bc f9 d8 84 3c c3 01 92 bd e5 74 91 bd
       -0.019892517 0.016216742 -0.07129242 -0.07102374
000310 50 2e 38 bd 92 46 54 3d 14 23 aa bc a3 e8 b6 3c
       -0.044966042 0.051825114 -0.02076868 0.022327727
000320 8a 4f 25 3d eb a6 71 bd 69 a7 f2 bb 96 27 1e 3b
       0.040359057 -0.058997076 -0.0074052108 0.0024132482
000330 f7 94 57 bd 61 dd 02 bd a1 a1 15 3d 32 f1 ec 3c
       -0.0526323 -0.031949405 0.036531094 0.028923605
000340 fc e1 3e bc 41 62 84 bd 51 ca 62 bd ff d9 4a 3d
       -0.011650559 -0.06464053 -0.055368725 0.049524304
000350 c0 a2 7d bd b4 eb ad 3b 01 32 ec bc 50 dc 88 3d
       -0.06192279 0.005307639 -0.028832437 0.06682646
000360 f0 b6 03 bb 10 e2 0e 3d f3 f0 80 bd c1 01 49 3d
       -0.0020098053 0.03488356 -0.062959574 0.04907394
000370 45 76 10 3c 45 4c ac bc 72 fb 7d bd 38 8f f2 3b
       0.00881726 -0.021032462 -0.062007375 0.007402327
000380 ef 88 33 bd 5e 0f f2 bc 80 88 7c 3d f5 3e 7d 3b
       -0.043831762 -0.029548343 0.061653614 0.0038642262
000390 27 da 56 3c 0c 76 87 bd 52 a3 fc bc c8 5f e6 bc
       0.013113535 -0.066143125 -0.030839596 -0.028121844
0003a0 4d ac 58 3d f9 2e 71 bc dc 35 78 3d 0c 83 b9 3b
       0.052898694 -0.014720672 0.06059824 0.005661374
0003b0 6d 62 ac bc a2 04 41 3d 02 f4 41 bd 40 e7 85 bd
       -0.021043027 0.04712356 -0.047351845 -0.06538248
0003c0 b9 a5 86 bd 21 48 aa bc 05 44 53 3c 49 8d 6e 3d
       -0.06574578 -0.020786347 0.012894635 0.05824021
0003d0 d7 1f d5 3b b1 22 52 3d f4 c9 86 3b d9 c8 30 bd
       0.0065040397 0.051302616 0.00411343 -0.043160293
0003e0 35 4b 53 3d 76 90 7c 3a cc 83 7a bd e2 f1 6d 3d
       0.051585395 0.00096345635 -0.061160848 0.058092006
0003f0 c7 b9 24 3d 56 8d 2e 3b 4d 55 a1 3c 50 e8 50 3d
       0.040216234 0.0026634536 0.019693995 0.0510028

fc3.bias f4 [52]
000000 22 0f bd bc 54 ae b6 3c 91 ca 36 3d 3a d9 91 3d
       -0.023078505 0.022299923 0.044626776 0.07121511
000010 24 42 8e 3d a7 ca 18 3d b0 cb 22 3c 41 28 87 3c
       0.06946209 0.03730264 0.009936258 0.016498687
000020 6c 02 1d bd c1 c6 74 bd 83 a9 3d 3d 7a d9 8a 3d
       -0.038332388 -0.05975986 0.046304237 0.067797616
000030 0c 6b 8f 3d 54 53 2a bd 1b 21 bb bb 74 c9 6d 3d
       0.070028394 -0.041583374 -0.0057107336 0.05805345
000040 16 4c 54 bd 59 b2 53 3d ea 70 47 3d bd af 0d 3d
       -0.051830374 0.051683757 0.048691668 0.034591425
000050 70 b2 5a bd 2e fe 4c bd 2f f6 29 3d f4 59 7d bd
       -0.053392828 -0.050047092 0.041494545 -0.061853364
000060 f2 d6 63 3d a8 4c 75 bc 03 ff c0 3c 3b 6d 00 bd
       0.05562491 -0.01497189 0.023559099 -0.03135417
000070 82 4e 47 3c f7 0b 2b 3d 92 af 02 bc 6b 19 17 3d
       0.012164714 0.041759457 -0.00797643 0.036889475
000080 1d 91 ac bd 89 79 85 bb c0 c1 26 bc 33 07 8c bc
       -0.08426116 -0.004073326 -0.01017803 -0.017093277
000090 be af 0b be 93 c4 6f 3d 73 ad 89 3d 44 91 b7 3d
       -0.13641259 0.058537077 0.06722536 0.08963254
0000a0 e6 e7 de 3c 64 bd 1a bd 0b b8 5c bd b1 f1 5a 3c
       0.027210187 -0.037778273 -0.053886455 0.013363288
0000b0 fb 83 40 bd 10 91 ed 3d 4e d5 8b bc c7 06 9d 3d
       -0.047000866 0.11599934 -0.017069485 0.07667308
0000c0 cf 23 a6 3d b1 4a 10 3e e0 fb af bb 2c b0 83 bd
       0.08112299 0.14090993 -0.005370602 -0.064300865
