src/ModelClient/models/trained_agents/dqn-random.pth (torch_old, 721572 bytes, 6 tensors)

fc1.weight f4 [300, 364]
000000 54 ce 30 3e 9e a9 10 3e 13 6a 81 3e 36 66 30 3e
       0.17266208 0.14127204 0.2527624 0.1722649
000010 c8 b4 a5 3d 3a 35 34 3e ff f3 85 3e d2 70 89 3e
       0.08091122 0.1759843 0.26162717 0.26843888
000020 fe a5 a0 bd d1 f5 4c 3d a7 73 16 be 8e 15 e3 3e
       -0.078441605 0.050039116 -0.14692555 0.44352382
000030 46 e5 5d 3e 4c 9f 9d 3e 42 c1 fb bc 4d 2f 08 3e
       0.21669492 0.30785596 -0.030731801 0.13299294
000040 b4 b7 b9 be e1 15 a7 3d 2a e1 1e be 9f f5 c9 3d
       -0.36272967 0.0815847 -0.15515581 0.09861302
000050 5a 0d a2 be 6f a3 17 3e 70 ce 56 be 61 e9 fa 3d
       -0.3165081 0.14808439 -0.20977187 0.12251545
000060 d2 5e 46 bd a0 06 c5 3c d4 74 6e 3e 10 0b 44 3e
       -0.04843027 0.02405101 0.23286754 0.19144845
000070 c3 c5 f0 3d 9b d5 ea 3d 99 4b 84 3e c5 94 ab 3d
       0.1175647 0.11466523 0.25838926 0.08377985
000080 74 cf c5 3e de 5f 09 3f e3 8e d6 3d 87 58 ce 3e
       0.38634837 0.53661907 0.10476472 0.40301916
000090 86 69 00 3e a4 1d 00 3e 32 03 56 bc f7 67 44 3e
       0.12540254 0.12511307 -0.013062285 0.19180284
0000a0 88 2e 3d 3e f8 20 9c 3d 10 11 e1 3d ae e0 4b 3e
       0.18474782 0.07623476 0.109895825 0.19909927
0000b0 71 1e 3a be f9 48 30 ba 57 a5 97 3e 6c e1 39 3d
       -0.18175675 -0.0006724741 0.29618332 0.045380995
0000c0 55 f4 95 3e c7 2a b2 3e 7d ad ba 3e 7e bf e1 3e
       0.29287973 0.34798262 0.36460486 0.4409141
0000d0 74 3d a4 bd 55 82 81 3e 0b 07 2b be 7d 46 a9 bd
       -0.08019534 0.25294748 -0.16701905 -0.08265398
0000e0 f3 b4 49 be b3 bf 4e be 36 27 3a bd 9c 42 6e be
       -0.19697933 -0.20190315 -0.04544755 -0.23267597
0000f0 af 56 ed be 2f 38 6f be 03 2f 5c be 00 23 c8 be
       -0.46355197 -0.23361276 -0.21502309 -0.39089203
000100 57 7e d5 3d 84 4b 05 3e 17 70 82 bd 92 56 7b be
       0.10424488 0.13017088 -0.06369036 -0.24544743
000110 d4 c7 61 3c 15 b0 c1 3e 3f bd 1c 3e 7f 3a 20 bf
       0.013780553 0.37829652 0.15306567 -0.6258926
000120 87 a8 02 3e 1a fe e5 bd af 2e 62 3c 9f b5 7e be
       0.127596 -0.11230107 0.013805076 -0.2487397
000130 69 d6 89 be 81 0d 7d be 8e 20 b1 bd 0f 30 e5 bd
       -0.26921394 -0.24712183 -0.086487874 -0.11190807
000140 86 f0 df be 5a da 06 3d ba 05 b7 3d 16 b1 1b bf
       -0.43738192 0.03292308 0.08936639 -0.60817087
000150 a1 65 99 be b6 de 5e be e5 54 24 3e 41 65 00 3e
       -0.2996035 -0.21764645 0.1604801 0.12538625
000160 95 9d 38 b9 5d 84 ff bb 10 e7 42 3e d2 a8 d6 bd
       -0.00017606311 -0.0077977614 0.19033456 -0.10481419
000170 28 1a 34 bd 9e 09 27 be 54 bc 3a 3e e3 e3 e6 bd
       -0.043970257 -0.16312262 0.18235904 -0.11273935
000180 4c 37 a3 3e 5f e8 73 3e fc 66 1a 3c ef 14 4e 3e
       0.31878126 0.23819111 0.009423967 0.20125173
000190 70 c8 b6 bd 52 d0 1d be 1b 06 07 bd 4d 84 a1 3e
       -0.08924949 -0.15411499 -0.032964807 0.3154625
0001a0 5f 48 21 bf 27 b9 8a bd 65 07 ba be d7 40 16 be
       -0.63001055 -0.06773596 -0.36333767 -0.14673172
0001b0 50 09 f4 be 5a b4 4f be cd 79 08 3f b2 f4 8d 3e
       -0.47663355 -0.20283642 0.53310853 0.2772575
0001c0 17 c5 8c 3e 15 00 d4 3e 75 2a f7 3c 2e 60 a6 3d
       0.27494118 0.41406313 0.030171612 0.081238136
0001d0 7e 01 fd be 2a bf 8c 3e 51 fe 92 be e6 7b fd bd
       -0.494152 0.27489597 -0.28709653 -0.123771474
0001e0 4e d4 eb bd b4 17 b1 be 30 0f 21 bf 6a 8a b5 be
       -0.11515103 -0.34588397 -0.629138 -0.35457164
0001f0 7b 74 8a be 88 d9 35 be 2a e7 02 3e 7b 8a 97 3e
       -0.27041993 -0.17758763 0.12783495 0.2959784
000200 2c 83 b1 be d3 c3 3f 3e 1a 73 e5 be e5 75 1d bf
       -0.3467039 0.18727045 -0.44814378 -0.6150802
000210 83 77 d0 bd 7a cc 41 3e e2 d8 6d 3e ed a4 05 bf
       -0.10179045 0.18925658 0.23227265 -0.5220478
000220 a2 78 0e bf 42 e3 17 be 09 97 83 be 21 c9 b8 be
       -0.5565282 -0.14832786 -0.25701168 -0.3609095
000230 97 f2 b7 3e fd fb df 3e 5c f2 8a 3d 15 17 8d 3e
       0.3592727 0.4374694 0.06784508 0.27556673
000240 b5 1e a6 3e 9c 5b 56 bd 37 5f a2 be eb 39 b0 3e
       0.32445303 -0.05233346 -0.31713268 0.34419188
000250 3d 18 94 bd 6b 3d 03 bf 06 aa 6e be 2e 79 56 bd
       -0.072311856 -0.5126559 -0.23307046 -0.05236166
000260 fd b0 3b 3e 81 f5 3d 3d 9c 5a 7e 3e 28 bc c6 bd
       0.18329234 0.04637671 0.24839252 -0.09703857
000270 2e 17 f6 3d 95 f8 35 be 0b bb d4 bc c1 cb a2 bd
       0.1201614 -0.17770608 -0.025968095 -0.07949019
000280 9b df 18 3f 7d 30 58 3e 1d 26 3a be f3 90 86 bd
       0.59716195 0.21112247 -0.18178602 -0.065706156
000290 85 6d 14 3d f6 26 8f be b6 2e ba bd fc e2 b5 3e
       0.03623726 -0.27959412 -0.09090941 0.35524738
0002a0 27 2f a7 3e 18 6e b5 be f6 9e 89 3d 0a 5e da bd
       0.32653162 -0.35435557 0.067197725 -0.10662468
0002b0 af 2c 2d be 90 ce ae 3d d5 68 37 bc 5a 7d 18 3e
       -0.16911577 0.085354924 -0.0111944275 0.14891568
0002c0 07 16 b8 be 6f 46 6e be 89 04 5b be bd a5 e6 be
       -0.35954306 -0.23269056 -0.21388449 -0.45048323
0002d0 8c 0d b1 3e 06 bb 1c 3e 62 0e 25 3e f1 7d 95 be
       0.34580648 0.15305719 0.16118768 -0.29197648
0002e0 6c 72 25 be 36 21 52 3e 4b 3e 89 bd 75 17 91 3e
       -0.1615693 0.20520481 -0.067013346 0.2833821
0002f0 f7 dd 9a 3e 9b 92 b1 be c3 b8 51 3c da 91 fe be
       0.3024747 -0.34682164 0.012800398 -0.4972065
000300 56 4a 44 be 52 cf b5 bd c0 d8 96 bf 40 6f 28 be
       -0.19168982 -0.08877434 -1.1784897 -0.16448689
000310 fb 04 d6 bd aa 31 30 3d fb fb 5e bd 7d 27 a7 be
       -0.10450169 0.043016113 -0.054439526 -0.32647315
000320 aa 72 f0 be fa 00 c9 be af fe 0d 3e 67 50 25 3c
       -0.46962482 -0.39258558 0.13866685 0.01008997
000330 96 a4 72 be 2f 22 25 3d d2 9c ca bd d9 c6 67 3c
       -0.23695597 0.040315803 -0.09893192 0.01414653
000340 8a 95 c0 bd c6 3e 62 3e 3d 2f 63 bc e6 03 18 bd
       -0.09403522 0.22094259 -0.013866243 -0.037113093
000350 48 03 62 3c c1 c1 1b be 86 57 56 be 42 3e c0 bd
       0.013794728 -0.1521063 -0.20931825 -0.09386875
000360 af fb 53 be a1 b1 06 be 93 26 4c bc 2b c9 5b be
       -0.20701478 -0.13153698 -0.012460369 -0.21463458
000370 74 ac 0f 3e 0f 75 46 3e 5f e5 19 3e a6 f3 e7 bd
       0.1403063 0.19380592 0.15028904 -0.11325769
000380 3b b5 b0 bd 5e fe ae 3e f3 97 51 3e 9a 6d f7 be
       -0.08628317 0.34178442 0.2046812 -0.48325807
000390 fe 9a 2a 3e ae c5 ec 3d 1d ea 9f bc d6 8e 1b be
       0.16660687 0.11561142 -0.019520814 -0.15191206
0003a0 2f fd 08 3e 0f 18 43 be b3 4d 6a 3e 4e 07 80 3d
       0.13377832 -0.19052146 0.22881202 0.06251393
0003b0 bf 25 f0 be 49 fa ad 3d d3 0c 13 3e 14 d9 af be
       -0.46903798 0.08495004 0.14360361 -0.34345305
0003c0 94 b4 c9 bd 34 cc 01 be b9 20 57 3e 12 9e 97 bc
       -0.09848896 -0.12675554 0.21008576 -0.018507991
0003d0 fe 15 66 3d 18 54 e0 3d b6 d1 b9 3e 49 e1 6b 3d
       0.056173317 0.109535396 0.3629281 0.057587896
0003e0 47 08 06 3d 7e 5e 1b be 43 e3 6a 3e 49 d8 89 bd
       0.032722738 -0.15172765 0.22938256 -0.06730706
0003f0 91 43 c9 3e b3 e6 89 3e f7 13 24 3d 18 a8 5b 3e
       0.39309362 0.26933822 0.040058102 0.21450841

fc1.bias f4 [300]
000000 69 38 76 be 79 87 59 3e a9 63 6c be 9c 1e 52 3d
       -0.24044956 0.21243085 -0.23084892 0.051298723
000010 c0 f5 13 3f 84 ba 5c 3c 00 16 00 3e fe 21 eb 3e
       0.5779686 0.013472203 0.12508392 0.4592437
000020 d5 83 91 be 01 c0 e7 bc 46 bb 4c be d2 72 88 3e
       -0.28420892 -0.028289797 -0.19993314 0.266501
000030 8f 6b 8b 3e 9a 9b 8a be bb e8 b1 3d 5a ff 2f 3e
       0.27230498 -0.2707184 0.08686968 0.17187253
000040 90 01 0e be 72 3a 8a 3d 05 07 87 3e 56 1c 81 3d
       -0.13867784 0.06749429 0.26372543 0.06304233
000050 90 09 c6 3e 7c 45 ad 3e d2 42 dc 3e 57 b1 ad 3e
       0.3867917 0.33842075 0.4301973 0.33924362
000060 e4 aa a4 3d 14 3e 9b 3e 55 98 32 3f 80 fa 22 3e
       0.08040407 0.303208 0.6976369 0.1591587
000070 fd d7 a3 3d d0 97 58 3e 7c a3 06 be 98 74 63 be
       0.08000181 0.21151662 -0.13148302 -0.22212446
000080 28 f7 33 3d d1 85 c7 3e 30 ac 44 3e 5a 93 c8 3e
       0.04393688 0.3896928 0.1920631 0.3917492
000090 d8 22 cb 3e dd 56 38 3e b9 ab c7 3e 6c 76 3e 3d
       0.3967502 0.18001886 0.389982 0.046499655
0000a0 82 19 06 be 6e 4e c8 3e d8 3f 81 3d 2d 93 9e 3e
       -0.13095668 0.39122337 0.06311005 0.3097166
0000b0 76 a6 15 be 0e 6c 54 be a6 be cc 3e b0 88 91 3e
       -0.14614281 -0.20744345 0.39989203 0.28424597
0000c0 2c e6 28 be 50 96 05 be 3b 92 92 3e 23 78 67 3c
       -0.16494054 -0.13045621 0.2862719 0.014127764
0000d0 28 5a 6e be 7c c9 c1 3e 4f 33 2d be f5 20 06 3f
       -0.2327658 0.37849033 -0.16914104 0.5239404
0000e0 8e 11 36 3d 29 a6 96 be 44 2d d4 3e be 88 c5 3e
       0.044450335 -0.29423645 0.41440785 0.38580889
0000f0 98 f3 5a 3d 93 dd c5 3f a8 17 59 3e cc 10 27 be
       0.053454965 1.5458244 0.2120043 -0.16315001
000100 26 0e cb 3e da 8a c4 3d 58 52 49 be 34 a6 1d 3f
       0.39659232 0.09596796 -0.19660318 0.6158173
000110 9b d9 9f 3d 3c 35 1d 3f e9 32 c9 bd df 10 6f 3f
       0.07805177 0.61409354 -0.098241635 0.9338512
000120 91 be b3 3e 8a 9d 3b 3f fd 88 90 3e 6e 25 85 be
       0.35106328 0.7328726 0.28229514 -0.2600512
000130 7c 12 fb 3e 31 d7 c8 3e e2 6d 44 3f 73 ec 9c be
       0.4903754 0.39226678 0.7673017 -0.30649146
000140 76 e8 4c be aa 4e ce 3c 56 51 9c 3e c8 ac ad 3e
       -0.20010552 0.025183994 0.30530804 0.33920884
000150 95 69 19 be 91 f7 6b bd d5 e4 2a be 42 60 66 be
       -0.14981683 -0.057609145 -0.16688855 -0.22497657
000160 2c 95 b5 3e 82 29 41 be 7e d7 87 be 4e 9f 05 be
       0.35465372 -0.1886349 -0.26531595 -0.13049051
000170 53 be 90 3e ce f9 16 3e e9 48 d4 3e 8e 38 a4 3e
       0.28270206 0.1474373 0.41461876 0.32074398
000180 d8 5a 8f 3e 70 1a c5 3d ad 23 df 3e 59 e3 44 3e
       0.27998996 0.09624183 0.43581906 0.19227351
000190 56 b9 63 be 3d 2d 04 3c 7c 4a 30 be 3f 2d 1b bd
       -0.22238669 0.008067426 -0.17215914 -0.037884947
0001a0 1b 18 89 3e 3c 4d 9a 3e 01 8c 59 be e2 51 73 3f
       0.26776204 0.3013705 -0.21244814 0.9504682
0001b0 d8 20 70 be f6 18 85 3e 92 6e 85 be 96 ed 95 3e
       -0.23450029 0.25995606 -0.2606092 0.29282826
0001c0 c9 d9 39 be 48 c9 5e 3f 5f 26 4b 3e 48 40 76 3e
       -0.18149485 0.8702588 0.19838856 0.24047959
0001d0 6c 89 95 be b0 30 b3 3e bb f8 af bc 2f 65 bd 3e
       -0.29206407 0.34998083 -0.021480909 0.3699126
0001e0 8f cb 97 be 87 0c 93 3e 24 aa ab 3f c0 35 c6 bd
       -0.2964749 0.28720495 1.3411298 -0.09678221
0001f0 09 4a 49 bd 7b e2 d4 3f d6 1f 87 3e 7c 33 a2 3e
       -0.04914287 1.6631616 0.26391476 0.31679904
000200 a4 5a 93 3e e8 42 60 3f be 6d a4 bd 5f b6 b9 3e
       0.2878009 0.8760209 -0.08028744 0.3627195
000210 91 6a d0 3f 74 6c 12 be 3d 0a 4e be c5 4d 28 3f
       1.6282521 -0.14299184 -0.20121093 0.65743667
000220 11 50 42 3d 63 96 b4 bd 5d c7 af 3e b2 24 9b 3d
       0.04743964 -0.088177465 0.3433179 0.075753585
000230 42 88 c1 3e 95 e3 d7 3e 28 0a 44 bd 0a 1f 80 3e
       0.3779927 0.4216582 -0.04786125 0.2502368
000240 38 5b 9d 3e 70 8c 2d be 79 2f ca 3e 96 ad 4d bc
       0.30733657 -0.16948104 0.39489344 -0.012553593
000250 05 ed 95 be b6 cd 82 3e 69 db 8c 3d d8 03 cb 3e
       -0.29282394 0.2554757 0.06877787 0.3965137
000260 69 0c 49 be e2 af f9 3d 03 1f ce 3e 22 f8 eb bd
       -0.1963364 0.1219175 0.40258035 -0.11521937
000270 97 29 b0 3d d1 50 5e 3e f2 48 df bd e9 f6 26 be
       0.08601683 0.21710517 -0.10902585 -0.16305126
000280 81 4a 1e 3f 12 d2 87 3e 03 38 49 be 32 01 e4 3e
       0.61832434 0.26527458 -0.19650273 0.44532162
000290 d5 72 e5 3e d6 b2 df 3d f7 52 a0 3c 72 73 c0 3e
       0.44814172 0.10922782 0.01957081 0.37588078
0002a0 14 01 1a be c9 66 c6 3e bc 30 2e bd 0a 12 cf 3e
       -0.15039474 0.38750294 -0.042526945 0.4044345
0002b0 b5 5a e2 3e 11 62 dc 3d d2 25 85 3e 72 92 d3 bd
       0.4420983 0.10760892 0.26005417 -0.103306666
0002c0 9c ee d9 3e f1 9f c3 3d 07 c5 02 3e 8f 17 48 be
       0.42564857 0.09551991 0.12770472 -0.19540237
0002d0 23 03 d2 3e 40 53 1b be 3a 81 bf 3e 08 7e 7e bd
       0.41018018 -0.15168476 0.3740328 -0.06213191
0002e0 b7 76 8d be 3d 07 fa bd 33 93 80 3e fc c4 ef bd
       -0.27629635 -0.12208412 0.25112304 -0.11707494
0002f0 90 c3 52 3e 2f 87 2b 3e 53 01 5f be 33 fc 11 bc
       0.20582414 0.16750787 -0.21777849 -0.008910227
000300 65 b1 30 3f 5b bc 22 be 09 fd 8e 3d 14 e6 b6 3e
       0.6902068 -0.15892164 0.069818564 0.3572241
000310 77 d9 c4 3d da 63 7a 3e eb 9f 2d 3f e4 01 df bd
       0.096117906 0.24452153 0.6782214 -0.108890325
000320 1f 40 d8 bc 07 11 1b be ed 93 3b be b2 e8 ac 3e
       -0.026397763 -0.15143214 -0.18318148 0.33771282
000330 13 31 c0 3e 41 3e 1e be 45 4d ff 3c bb 8f eb ba
       0.3753744 -0.15453435 0.031164775 -0.0017971912
000340 1a 92 ec 3d 09 02 8a 3e f7 bd 1d be c7 49 2a 3e
       0.11551304 0.26954678 -0.15404497 0.16629706
000350 e7 2e 7b bd 8b f8 96 3e ff 08 c3 3e ce b6 ba 3d
       -0.061324026 0.29486498 0.380928 0.091168985
000360 4d f0 a8 3e 61 49 07 be 64 fd 6b be 44 54 a7 3e
       0.32995835 -0.13211586 -0.2304588 0.32681477
000370 b4 9a ed 3e 59 6e eb 3e 2f 35 1e 3d 8c b2 16 3e
       0.46407092 0.45982626 0.03862494 0.14716548
000380 8b e3 d6 bd c5 b2 f1 3f 06 57 0a be e4 04 77 3e
       -0.10492619 1.8882681 -0.1350976 0.2412296
000390 4c ea 80 3e 58 47 0f 3f e4 db 46 3d 88 d4 b9 3e
       0.25178754 0.55968237 0.048549548 0.3629496
0003a0 50 d0 61 3e 8f 9b 78 3e 6d c9 12 3a 33 6d ae 3e
       0.22052121 0.24278091 0.0005599473 0.34067687
0003b0 71 b0 a6 3e a9 16 30 3d 67 c6 ce 3e 9d 55 1f bc
       0.3255649 0.04299036 0.40385744 -0.009725002
0003c0 23 51 a0 3e fa 02 65 be 97 34 af be 67 0c c7 3d
       0.31311902 -0.22364417 -0.3421981 0.097191624
0003d0 81 69 b7 3e 27 a9 d5 3e e1 2e 4a be e9 1e 4f 3e
       0.3582268 0.41730615 -0.19744445 0.20226635
0003e0 9a 21 32 be c1 90 eb 3d b8 fd c7 3e 2b 69 8b 3d
       -0.1739563 0.11502219 0.3906076 0.068071686
0003f0 ea 78 80 3e 7b 16 3a be e7 e6 00 3f 48 de 14 3d
       0.2509225 -0.18172638 0.5035233 0.036344796

fc2.weight f4 [200, 300]
000000 41 03 47 40 6a 33 bd bf b2 c7 1f 40 08 76 13 40
       3.1095736 -1.4781315 2.4965634 2.304079
000010 95 4f f7 3f 3c e8 28 40 02 3c 25 40 c9 c2 0c 40
       1.9321162 2.6391745 2.5817876 2.1993887
000020 32 68 45 40 df 2a 1e 40 22 a2 27 40 9d 5c 00 40
       3.0844846 2.4713666 2.6192708 2.0056527
000030 53 0b a9 bf a2 6f 15 40 e3 9d 10 40 30 ae 04 40
       -1.3206581 2.3349385 2.2596366 2.0731316
000040 6d 06 29 40 f9 94 0c 40 f8 d5 bf bf b8 e0 14 40
       2.6410172 2.1965926 -1.4987173 2.3262157
000050 6f 6f bb bf 79 47 6e bf 68 09 f7 bf cb 89 8f bf
       -1.4643382 -0.9307781 -1.9299746 -1.1213926
000060 e7 6f 0d 40 4e c4 f2 3f b1 b0 de 3f 1f aa 08 40
       2.209955 1.8966157 1.7397672 2.1353834
000070 13 f8 e2 3f 13 96 1d 40 3f d0 26 40 b9 04 3c 40
       1.7731956 2.4622848 2.6064603 2.9377882
000080 14 82 15 40 02 01 89 bf 39 6d 19 40 ad 5b 0a c0
       2.3360643 -1.0703433 2.3972914 -2.1618454
000090 a8 09 ca bf 38 e3 04 40 a5 56 c4 bf e3 49 1b 40
       -1.5784197 2.0763683 -1.5338942 2.4263847
0000a0 a7 1d 1d 40 a6 e3 f0 3f 87 e1 1b 40 62 4b 13 c0
       2.4549348 1.8819473 2.43564 -2.301476
0000b0 3f cf 2c 40 55 4a 50 40 af 7d d4 bf 1f 87 d4 bf
       2.7001493 3.2545369 -1.6600856 -1.6603736
0000c0 47 8e 27 40 45 85 18 40 a6 0e 99 bf 23 cb 30 40
       2.618059 2.3831341 -1.1957595 2.7623985
0000d0 5b 30 3d 40 b5 b3 c9 bf 33 bf 1b 40 0c bd 16 40
       2.9560764 -1.5757967 2.4335449 2.3552885
0000e0 62 c5 fa 3f b9 50 3d 40 fa 77 80 bf 4b 26 f3 3f
       1.9591486 2.958052 -1.0036614 1.8996061
0000f0 b9 63 24 40 b3 0a b1 3f 35 37 11 40 39 12 36 40
       2.5685866 1.383139 2.2689946 2.8448622
000100 b9 63 02 40 01 42 09 40 d6 a2 2e 40 0d 29 d5 3f
       2.0373366 2.1446536 2.7286887 1.6653153
000110 d6 df 18 40 5e 56 b5 3f 1f dd 1f 40 d6 0d c6 3f
       2.3886619 1.4166982 2.4978712 1.5472972
000120 88 c9 f8 3f 74 d9 e2 3f c5 de ea 3f 3a 70 42 40
       1.9436502 1.7722611 1.8349234 3.0380998
000130 f4 f1 dc bf 0b 64 bb bf c1 9f e9 3f 73 5c 57 40
       -1.7261338 -1.4639906 1.8251878 3.3650177
000140 6c 95 21 40 42 49 01 40 fa 76 cf bf 41 04 03 c0
       2.524745 2.0200963 -1.6208184 -2.0471346
000150 97 fb 25 40 fe 36 2e 40 2c fc 2b 40 31 87 23 40
       2.5934808 2.7221065 2.6872663 2.5551264
000160 80 7d c7 bf 24 d1 1c 40 00 81 35 40 a5 d5 19 40
       -1.5585175 2.450265 2.8359985 2.4036648
000170 42 b3 f8 bf eb 0a 04 40 3c 96 e0 3f 3b 11 9c bf
       -1.9429705 2.0631664 1.7545848 -1.2192758
000180 7d 13 f8 3f 34 d7 13 40 9a 3a e9 bf 98 ed 0e 40
       1.9380947 2.31001 -1.8221009 2.2332516
000190 33 cf 2d 40 b9 33 10 40 c5 3f 1c 40 65 be 18 40
       2.7157714 2.253157 2.4413922 2.3866208
0001a0 53 9d d1 bf 09 f5 12 c0 31 2e 1e 40 75 96 fd 3f
       -1.6376137 -2.2962058 2.4715693 1.9811541
0001b0 a6 ac 30 40 e6 32 00 40 74 d9 38 40 f0 8a 02 40
       2.7605376 2.0031066 2.8882723 2.03973
0001c0 da 7b f7 3f cb c1 dc 3f 05 6e 13 40 70 a0 00 40
       1.9334671 1.7246641 2.30359 2.0097923
0001d0 85 6c 20 40 5b ad af bf 64 94 33 40 e9 20 df bf
       2.5066235 -1.3724779 2.805932 -1.7431918
0001e0 9f 73 30 40 19 78 da bf c9 b1 b7 3f c2 0d 38 40
       2.757057 -1.7067901 1.4351131 2.8758397
0001f0 83 ee 2b 40 b0 a6 90 3f 8b 5d 90 bf df ce a8 bf
       2.6864326 1.1300869 -1.1278547 -1.3188132
000200 64 97 d7 bf e0 00 af 3f fa 56 36 40 4d eb 96 bf
       -1.6843076 1.3672142 2.8490586 -1.1790558
000210 d7 0c 99 3f 26 7b 1b 40 82 59 65 40 78 61 dd 3f
       1.1957043 2.4293914 3.5835881 1.729537
000220 9e 1e 15 40 f2 a1 1a 40 16 96 de 3f 03 89 05 40
       2.3299937 2.4161344 1.7389553 2.0864875
000230 e1 e9 f7 3f 98 12 93 bf d8 64 1c 40 c8 e4 a2 bf
       1.9368249 -1.1490049 2.443655 -1.2726068
000240 35 77 ea bf 78 c8 19 40 44 fd a3 bf 51 f8 b5 3f
       -1.8317629 2.4028606 -1.2811666 1.4216405
000250 ed 99 3b 40 a8 e3 04 40 70 46 06 40 51 6d d4 3f
       2.93127 2.076395 2.0980492 1.6595861
000260 89 7a 3a 40 51 81 03 40 b2 7d 9c bf d1 db 11 40
       2.913729 2.0547678 -1.2225859 2.2790415
000270 72 ab f7 3f 1f 29 0e 40 ac 69 1a 40 9e 4b 24 40
       1.9349196 2.2212598 2.4126997 2.5671153
000280 59 0d e2 3f ca 22 fb bf 25 ac 48 40 e3 0a 0b c0
       1.7660323 -1.9619992 3.1355069 -2.1725395
000290 d2 5b 8c bf 4b cd 0d 40 af 21 15 40 fc 8c 11 40
       -1.0965521 2.215655 2.330181 2.27423
0002a0 ac 65 0f 40 8c f5 b9 bf 75 fb 07 40 23 f6 ce bf
       2.2405806 -1.452806 2.1247227 -1.6168865
0002b0 7b 9d 28 c0 22 75 1b 40 77 ca d0 bf c1 f3 17 40
       -2.6346118 2.4290242 -1.6311787 2.3742526
0002c0 3a 8b b5 bf 26 3f 13 40 8c 4d 1d 40 67 fb 48 40
       -1.4183114 2.3007293 2.457858 3.1403444
0002d0 cc 91 08 40 5e 29 31 40 31 44 d7 bf 84 d8 12 40
       2.1338987 2.7681499 -1.6817685 2.294465
0002e0 16 ee 41 40 e3 84 1f 40 23 f7 f9 bf ad ed 1c 40
       3.0301566 2.4924858 -1.9528545 2.4520066
0002f0 4b 4c 0a 40 08 88 d8 3f ae 4f 24 40 01 82 05 40
       2.1609066 1.6916513 2.5673633 2.0860598
000300 46 6d de 3f f7 63 2d 40 b8 ab 06 40 91 00 f3 bf
       1.7377098 2.7092264 2.1042309 -1.8984548
000310 af 85 20 40 92 55 08 40 6b 8a fd 3f 53 ae 2e 40
       2.5081594 2.1302228 1.9807867 2.72939
000320 e1 f4 17 40 34 33 26 40 d0 d4 18 40 9d 7e d8 bf
       2.3743212 2.5968752 2.387989 -1.6913639
000330 f8 7f c5 bf ce 6b 25 40 ab d6 2c 40 d4 0c 0f 40
       -1.5429678 2.5847049 2.7006023 2.235158
000340 61 e1 17 40 f4 7a f9 bf ae 5f 1d 40 81 fd f3 3f
       2.373131 -1.9490647 2.4589648 1.9061738
000350 9b 0c ff 3f 3e 12 db bf 7e 51 68 bf 7d f5 08 40
       1.9925722 -1.7114942 -0.9074935 2.1399834
000360 b3 14 ea 3f 1c bf 38 40 62 87 2d 40 f3 39 b2 bf
       1.8287567 2.8866644 2.711388 -1.3923935
000370 e3 f4 d9 3f 8b c4 d6 3f 49 f6 17 40 15 03 0a 40
       1.7027858 1.677873 2.374407 2.156438
000380 c8 aa 1f 40 b7 fa 35 3f 2c 2a 25 40 c3 ed ff 3f
       2.4947987 0.71085685 2.580699 1.9994434
000390 a9 ed 13 40 08 22 05 40 8b 0a 16 40 8e f2 0c 40
       2.3113806 2.080202 2.3443935 2.2023044
0003a0 cf 97 0a 40 b8 e8 07 40 27 a6 0b 40 90 c1 08 40
       2.1655157 2.123579 2.1820161 2.136814
0003b0 4b fd cc bf de 8d 13 40 49 32 8f bf 74 ad 13 40
       -1.6014799 2.305534 -1.1187221 2.3074617
0003c0 4a 60 f5 3f 11 01 2c 40 ed 3a 28 40 3d d1 12 40
       1.917001 2.687565 2.6285965 2.294021
0003d0 63 30 d2 bf 6e 2b 91 bf 17 b1 28 40 a8 39 d7 3f
       -1.6421016 -1.1341379 2.6358087 1.681447
0003e0 71 f1 3a 40 7d 90 05 40 3d 14 59 bf 0d f4 0d 40
       2.9209864 2.0869439 -0.84796506 2.2180207
0003f0 71 9a 0a 40 cc 45 37 40 aa 76 d0 3f df 81 09 40
       2.1656764 2.863635 1.6286213 2.1485517

fc2.bias f4 [200]
000000 97 27 f7 3f 7c 2c ea 3f 70 5e e3 3f d0 25 e3 3f
       1.9308957 1.8294826 1.7763195 1.7745914
000010 cb bd f6 3f 29 db e5 3f 5f c3 f4 3f 02 fc f0 3f
       1.927667 1.7957507 1.9122123 1.8826907
000020 da 28 5d bd 9a f3 e9 3f 67 aa fb 3f c2 53 00 40
       -0.053994037 1.8277466 1.9661378 2.0051122
000030 c2 57 e7 3f 70 d1 ef 3f 09 aa ee 3f fd 4e f2 3f
       1.8073657 1.873579 1.8645641 1.8930355
000040 f1 81 f2 3f 68 45 a2 bc 7a 29 ed 3f 26 8e c1 3f
       1.8945905 -0.019808486 1.8528283 1.5121505
000050 31 31 00 40 2d c0 c3 3f 09 88 b8 3f 71 a5 ed 3f
       2.0030024 1.5293022 1.4416515 1.8566114
000060 6a 71 f6 3f e5 09 ea bc bd 42 fe 3f 01 bf f3 3f
       1.9253361 -0.028569171 1.9864117 1.9042665
000070 63 71 ef 3f ae ad f8 3f cf 98 14 3d 03 68 9e 3f
       1.8706478 1.9428003 0.036278542 1.2375492
000080 38 59 cb 3f d3 fd a5 3f df e6 e2 3f f7 33 cb 3f
       1.5886602 1.2968086 1.7726706 1.5875233
000090 dc 3f f3 3f e2 62 fc 3f 99 72 fc 3f 78 bd 1b bc
       1.9003863 1.9717677 1.9722472 -0.009505622
0000a0 b2 e0 da 3f 91 ed f5 3f 70 3c f9 3f c6 fa d9 3f
       1.7099822 1.9213125 1.9471569 1.7029655
0000b0 5a 67 f1 3f d9 91 f9 3f 48 47 c7 3f e8 66 00 40
       1.8859665 1.9497634 1.5568628 2.006281
0000c0 52 53 eb 3f 8e e8 df 3f 75 22 db 3f 4e e1 f8 3f
       1.8384802 1.7492845 1.711989 1.9443758
0000d0 60 59 e3 3f ab 83 f3 3f ca 20 ec 3f 69 b6 ea 3f
       1.776165 1.9024557 1.8447506 1.8336917
0000e0 76 08 e9 3f a5 64 15 3e ab 53 e5 3f bc 7f fd 3f
       1.8205707 0.14589174 1.7916158 1.9804606
0000f0 f4 6c fa 3f 8d 92 dc 3f 63 0b dd 3f 6b ef d0 3f
       1.95645 1.7232224 1.72691 1.6323065
000100 8a 86 fa 3f c7 89 dd 3f 1e 76 29 bd 07 47 76 3f
       1.9572308 1.7307671 -0.04137241 0.9620213
000110 84 62 f3 3f 2c b3 fc 3f 4a 47 e3 3f d2 f2 f3 3f
       1.901444 1.9742179 1.7756131 1.9058478
000120 2d f0 ef bc 5d 08 e9 3f 30 58 e7 3f de 96 ef 3f
       -0.02928933 1.8205677 1.8073788 1.8717916
000130 5e 0a ed 3f c2 de ee 3f 85 d2 36 be 73 84 de 3f
       1.8518789 1.866173 -0.17853744 1.738417
000140 05 c8 00 40 6a 10 ee 3f 6f 62 f7 3f ed 85 cd 3c
       2.0122082 1.8598759 1.9326915 0.025088275
000150 76 2d d2 3f e7 ff ed 3f 81 03 a8 bc 43 29 38 bd
       1.6420124 1.859372 -0.020509483 -0.044961225
000160 32 97 ed 3f a5 85 e5 3f ed d9 ec 3f 54 46 f4 3f
       1.8561766 1.793141 1.8504006 1.9083962
000170 20 8b 00 40 ad 9c 12 bd 25 15 dd 3f ae fc f6 3f
       2.0084915 -0.03579395 1.7272078 1.9295862
000180 91 85 e7 3f 58 57 f4 3f 87 92 f3 3f 40 d9 cd 3f
       1.8087636 1.9089155 1.9029092 1.6081924
000190 7d 3d eb 3f 05 20 e0 3f bd 54 ac 3f 13 15 ed 3f
       1.837814 1.7509772 1.346336 1.8522056
0001a0 87 f7 f1 3f b2 7c e8 3f d1 14 ec 3f 4e 0a e4 3f
       1.8903664 1.8163054 1.8443853 1.7815645
0001b0 51 3f f6 3f a9 c6 ba 3f fa 53 ed 3f 54 a1 c6 bc
       1.9238073 1.4591876 1.8541253 -0.02424685
0001c0 12 9c f4 3f 1b a5 e7 3f d2 c4 e6 3f 59 64 83 bc
       1.9110129 1.8097261 1.8028815 -0.01603906
0001d0 2f 52 e8 3f 77 0b e0 3f ce 85 e5 3f ba a3 e4 3f
       1.815008 1.7503499 1.7931459 1.7862465
0001e0 b9 d2 f2 3f 12 72 e4 3f 10 75 e0 3f f3 92 fe 3f
       1.8970557 1.7847311 1.7535725 1.9888595
0001f0 40 55 da 3f 30 1a eb bc d8 f4 e1 3f e5 bb c3 3f
       1.7057266 -0.02869901 1.7652845 1.5291716
000200 79 65 e3 3f f7 e3 e8 3f 88 83 ef 3f 62 d6 db 3f
       1.7765342 1.8194569 1.8712015 1.71748
000210 02 3b ef 3f e2 c7 e2 3f 04 7b ef 3f 0f ae ef 3f
       1.8689883 1.7717249 1.8709416 1.8724993
000220 74 3c f4 3f 78 60 ee 3f 84 cb 35 3f 1c ee f7 3f
       1.9080949 1.862319 0.71013665 1.936954
000230 cb 4e 9c 3d 31 f3 ee 3f f3 21 f9 3f 49 3a d3 3f
       0.07632216 1.8667966 1.9463485 1.6502162
000240 d2 ef dd 3f c7 5e f4 3f c6 5d eb 3f 36 6a 5f 3e
       1.7338812 1.9091424 1.8387992 0.2181786
000250 70 45 f9 3f da 3c dd 3f 9c af f2 3f 60 2e 8c 3f
       1.9474316 1.7284195 1.8959842 1.0951653
000260 fd 47 ff 3f 58 36 d5 3f 60 3e c4 3f ce 34 14 3d
       1.9943844 1.6657209 1.5331535 0.03618317
000270 d8 ad f1 3f 9c d1 ef 3f 23 e3 f0 3f f4 3d a0 3f
       1.8881178 1.8735843 1.8819317 1.2518907
000280 7a c4 e0 3f 03 e7 ec 3f 78 12 17 3d 4c a8 da 3f
       1.755996 1.8507999 0.036882848 1.708261
000290 84 1d 0b bd 69 9c 84 bd ad 0a e6 3f 5c e1 ca 3f
       -0.033963695 -0.06475145 1.7972008 1.5850024
0002a0 3d 5a a9 3f 65 6b cf 3f ed c1 ca 3f 96 29 d0 3d
       1.3230664 1.6204649 1.5840431 0.10164182
0002b0 ea 60 ea 3f 9b 46 db 3f e5 a5 de 3f 1b b3 ef 3f
       1.8310826 1.7130922 1.7394377 1.8726534
0002c0 3f a9 f5 3f 43 7d e4 3f c0 67 fb 3f 80 68 e0 3f
       1.9192275 1.7850727 1.9641037 1.7531891
0002d0 1b 98 f7 3f 2d b8 e0 bc 73 d2 e0 3f ff 75 e6 3f
       1.9343294 -0.027431572 1.7564224 1.800476
0002e0 c6 22 d6 3f 8b d4 cd 3f e7 13 ec 3f 60 78 f0 3f
       1.6729362 1.6080488 1.8443574 1.8786736
0002f0 75 10 63 bb 6e d9 e2 3f b7 f9 e3 3f 23 77 f5 3f
       -0.003464726 1.7722604 1.7810582 1.9176983
000300 7f 59 f6 3f f5 a6 e0 3f 19 68 ef 3f d6 23 c5 3f
       1.9246062 1.7550951 1.8703643 1.5401561
000310 28 4c e9 3f 63 54 eb 3f 73 bd d5 3f 89 e7 e3 3f
       1.8226366 1.8385128 1.669844 1.7805034

fc3.weight f4 [52, 200]
000000 77 65 12 3f 23 ae 19 3f 66 02 4b 3f fd 86 2f 3f
       0.57186073 0.60031337 0.79300535 0.6856535
000010 9f db 5b 3f 37 06 15 3f 4c a1 1c 3f 4b b3 29 3f
       0.8588199 0.5821261 0.6118362 0.66289204
000020 84 c5 e5 bf d3 65 27 3f 8a 43 47 3f 0d 87 38 3f
       -1.7950902 0.65389746 0.7783743 0.7208107
000030 76 ef fd 3e 78 5b 30 3f e0 1d 1c 3f dc 78 52 3f
       0.49596757 0.6888957 0.60983086 0.82215667
000040 c9 ab 38 3f 4e 25 67 bf c2 00 67 3f f6 b3 73 3f
       0.72137123 -0.902913 0.9023553 0.95196474
000050 4e c1 2a 3f 5f f3 45 3f 9c 77 52 3f 89 5a 34 3f
       0.6670121 0.7732448 0.8221376 0.70450646
000060 e3 61 23 3f bc ad d2 bf 91 b6 34 3f 02 3b 66 3f
       0.6382124 -1.645927 0.70591074 0.8993379
000070 f7 d1 0b 3f 60 e8 5e 3f 28 df c8 bf 9b a5 bd be
       0.54617256 0.87073326 -1.5693102 -0.3704041
000080 72 70 4e 3e 11 83 46 3f f5 73 15 3f e3 9f 20 3f
       0.20160082 0.7754374 0.5838006 0.6274397
000090 e4 c3 49 3f e7 85 0c 3f 7f 85 3d 3f 3a 7b 05 c0
       0.7881453 0.5489182 0.74031824 -2.0856462
0000a0 50 8f a7 3f f5 be 45 3f f6 ca 4d 3f 05 ba f9 3e
       1.309061 0.772445 0.8038782 0.48774734
0000b0 60 85 71 3f 39 12 48 3f 2c 82 1b 3f 6a 58 1a 3f
       0.9434414 0.78152806 0.607455 0.6029116
0000c0 21 23 0c 3f 32 ec 4d 3f 34 5a 31 3f c1 7f 27 3f
       0.547411 0.8043853 0.69278264 0.6542931
0000d0 8d a6 0c 3f eb 29 f2 3e 76 de 89 3f 2a 05 1e 3f
       0.54941636 0.47297606 1.0771015 0.6172663
0000e0 83 43 2b 3f c0 43 14 c0 6e 87 45 3f 88 0b 56 3f
       0.6689989 -2.3166351 0.77159774 0.83611345
0000f0 c8 84 3c 3f a5 f8 83 3f 8a fb 8e 3d 5c 4f b0 3e
       0.7364011 1.0310255 0.06981571 0.34435546
000100 67 9f 69 3f a8 9d f0 3e 77 9f e4 bf 22 35 2c be
       0.91258854 0.46995282 -1.7861165 -0.16817144
000110 52 dd ff 3e e8 7b 10 3f 70 05 29 3f ee 4e 1f 3f
       0.49973541 0.56439066 0.6602392 0.6222981
000120 29 22 01 c0 15 ad 27 3f 52 57 30 3f cc 3b 28 3f
       -2.01771 0.6549848 0.6888324 0.6571624
000130 c7 fa 63 3f e2 69 c7 3e df 4a c9 3e 50 ad 94 3f
       0.8905453 0.3894797 0.39314935 1.1615391
000140 68 03 54 3f 8e d1 14 3f 29 aa 56 3f 17 28 b8 bf
       0.828177 0.58132255 0.83853394 -1.4387234
000150 b0 9a 4f 3f 1f f4 0c 3f 35 d1 13 c0 86 18 b9 bf
       0.8109541 0.5506 -2.309644 -1.4460609
000160 b1 c3 d2 3e 7c d8 cf 3e b8 58 0e 3f 97 1e 89 3f
       0.41164926 0.40594852 0.55604124 1.071246
000170 31 f1 31 3f fb fb b5 bf 80 89 26 3f 92 a5 55 3f
       0.69508654 -1.4217523 0.6505356 0.83455765
000180 62 19 5d 3f d9 1b ee 3e 20 73 35 3f 64 e7 2a 3f
       0.86366856 0.4650562 0.7087879 0.66759324
000190 12 00 16 3f 4f bb 41 3f 51 41 bf 3e 91 48 2f 3f
       0.5859386 0.75676435 0.3735452 0.684701
0001a0 0c fa 16 3f a2 b4 20 3f a2 88 5f 3f 9b 9c e8 3e
       0.5897529 0.62775624 0.8731786 0.4543198
0001b0 e8 7f 56 3f c6 74 1d 3f 57 d6 d7 3e 8d 52 ca bf
       0.8378892 0.6150631 0.42155716 -1.5806442
0001c0 39 f5 4d 3f d3 85 6d 3f 10 a3 0c 3f f4 95 1f c0
       0.80452305 0.92782325 0.54936314 -2.4935274
0001d0 54 66 20 3f 8e 22 2f 3f 38 66 87 3f c3 94 53 3f
       0.6265614 0.684121 1.057807 0.8264887
0001e0 38 7a 12 3f 0c 72 42 3f 56 b0 03 3f f9 c4 33 3f
       0.5721774 0.7595527 0.5144094 0.7022243
0001f0 d1 14 68 3f 67 e0 65 bf 89 ec 4f 3f 85 9f 32 3f
       0.90656763 -0.89795536 0.812203 0.6977466
000200 f3 b7 1b 3f b7 76 f8 3e 02 e7 54 3f 92 3c 9c 3f
       0.6082756 0.48528072 0.8316499 1.2205985
000210 b7 15 4f 3f b9 0e 72 3f 72 df 66 3f f2 b1 54 3f
       0.8089251 0.94553715 0.901847 0.83084023
000220 f3 c1 33 3f 60 f7 1b 3f 8a 14 54 bd 24 47 55 3f
       0.7021782 0.6092434 -0.0517774 0.83311677
000230 72 8f 25 c0 ac 37 48 3f 07 38 e2 3e 5a 31 7f 3f
       -2.5868802 0.7820995 0.4418337 0.9968468
000240 74 2b 11 3f 90 4e 19 3f 55 88 27 3f d9 60 dd bf
       0.5670693 0.598855 0.654424 -1.729518
000250 26 1b 45 3f 05 c6 f0 3e 89 48 3d 3f a1 ab 84 3e
       0.7699455 0.47026077 0.73938805 0.25912192
000260 94 ce 50 3f 5b 88 80 3f 7f 1a 87 3f 22 3d c4 bf
       0.81565213 1.0041612 1.0554961 -1.5331156
000270 6c 3e 1e 3f df ec 10 3f 2b 2e a4 3e c2 a9 8f 3f
       0.61814 0.56611437 0.32066473 1.1223681
000280 36 51 10 3f fb 5a b3 3e ca e3 9d bf 8b a0 fd 3e
       0.5637392 0.3503035 -1.2335141 0.49536547
000290 19 33 69 bf 1c 2a 8e bf 9b d6 6e 3f 05 01 ee 3e
       -0.91093594 -1.1106601 0.9329621 0.46485153
0002a0 d8 06 2f 3f c3 7a b4 3e 3a 7a 97 3e 10 60 09 bf
       0.6836982 0.3524991 0.2958544 -0.53662205
0002b0 ab db 70 3f f2 2b f5 3e 80 2a 63 3f e4 1e de 3e
       0.94085187 0.4788509 0.88736725 0.43382943
0002c0 52 6e 3f 3f cb bf 17 3f f9 b3 46 3f 79 bb 54 3f
       0.7477771 0.5927703 0.77618366 0.8309856
0002d0 30 37 5f 3f 17 35 dc bf ee 66 22 3f 56 7b 36 3f
       0.87193584 -1.7203702 0.6343831 0.71281946
0002e0 f3 61 3c 3f 50 e9 e7 3e 70 41 25 3f 01 c7 6e 3f
       0.7358696 0.4529519 0.64552975 0.93272406
0002f0 b7 5f ed bf cc 3d 71 3f 1b 7a 32 3f 39 a8 1a 3f
       -1.8544835 0.9423492 0.6971757 0.6041294
000300 b9 d6 40 3f c1 64 46 3f d2 d1 65 3f cf cc 1d 3f
       0.7532764 0.7749749 0.89773285 0.6164064
000310 13 72 45 3f f6 93 3c 3f 6b 54 6a 3f 07 09 09 3f
       0.7712719 0.7366327 0.9153506 0.535294
000320 7a 0d 50 3f 2b e9 1e 3f 01 6a 2f 3f ff 2d 40 3f
       0.81270564 0.62074536 0.68521124 0.75070184
000330 14 4e 9d 3e 0e 72 11 3f be a2 01 3f 7c 79 d3 3e
       0.3072363 0.5681466 0.5063895 0.41303623
000340 d6 9c 78 bf c4 75 53 3f 0b ea 10 3f 21 e7 39 3f
       -0.9711431 0.8260157 0.5660712 0.726183
000350 12 6a 28 3f 4a 2d 20 3f 73 29 2f 3f a9 de 3a 3f
       0.6578685 0.62569106 0.6842262 0.72996
000360 f8 95 3f 3f ab ab 5b bf f2 db 3e 3f 94 11 5f 3f
       0.7483821 -0.8580882 0.7455436 0.871362
000370 bd 78 66 3f 07 27 2c 3e 97 e6 f7 3e 50 1e 62 3f
       0.9002798 0.16811763 0.48418114 0.88327503
000380 8b 90 1d 3f 5c b8 e4 bf 3a ba 4c 3f 5c 69 74 3f
       0.6154868 -1.7868762 0.7997166 0.95473266
000390 65 1c 02 3f 6e 2e 1e 3f fc b0 f4 bf ae 67 e7 3e
       0.50824577 0.61789596 -1.9116511 0.4519629
0003a0 ed d3 46 3e be dc 73 3f c4 6f 22 3f 5f 64 1c 3f
       0.19416781 0.952587 0.6345179 0.61090654
0003b0 98 c9 28 3f c8 39 22 3f 3c b3 0c 3f 90 3f e7 bf
       0.6593261 0.6336942 0.5496099 -1.8066273
0003c0 7e 80 28 3f a0 99 01 3f fa 1a 64 3f 6b ae 8c 3f
       0.65821064 0.5062504 0.8910366 1.0990728
0003d0 51 88 47 3f 11 51 40 3f 98 c7 47 3f 09 3c 29 3f
       0.7794238 0.751237 0.7803893 0.6610723
0003e0 0d 80 30 3f b7 f2 37 3f 84 1f 8b 3f 11 45 1a 3f
       0.6894539 0.7185473 1.0868993 0.60261637
0003f0 c3 6c 6b 3f 81 77 25 3f 74 2a cd 3e ee ea 80 3f
       0.9196283 0.64635473 0.40071452 1.0071695

fc3.bias f4 [52]
000000 0c ba 0d 3f 10 58 c2 3e 3d 9d 0e bc 20 ec 20 3f
       0.5536201 0.3795781 -0.008704481 0.628603
000010 a1 ff 11 3f 17 14 55 3f 80 49 65 3f 31 69 40 bd
       0.57030684 0.8323378 0.8956528 -0.04697532
000020 ca 1c 54 bd 13 82 29 3f 50 23 2d 3f ab 7d a9 3e
       -0.051785268 0.662141 0.6763201 0.3310369
000030 af 7f 46 3e 2f 2e 68 3f 80 10 15 3f 78 c3 1c bd
       0.19384645 0.9069547 0.582283 -0.03827235
000040 35 d9 13 bd 4a fb 13 3f b5 0f 44 3d 6a b7 db 3e
       -0.036095817 0.5780531 0.047866542 0.4291337
000050 51 72 1d bc 23 c6 d9 3e c5 a6 95 bd 99 e8 a1 3e
       -0.009609775 0.4253398 -0.073071994 0.3162277
000060 1a 28 fe 3e f3 dc 05 3f 85 33 29 3f 2c 66 26 3f
       0.4963997 0.52290267 0.6609424 0.6499965
000070 4d 1b 99 3e 79 c0 36 3f 72 3a d2 3e a7 ce 28 3f
       0.2990364 0.7138744 0.41060215 0.65940326
000080 3a 77 e8 3e d2 45 53 bd 00 99 fe 3e 05 10 ad 3e
       0.45403463 -0.051580258 0.49726105 0.33801284
000090 ea 70 50 3f 45 04 02 3d 8f 3b 6d 3f 2c 85 18 3f
       0.81422293 0.031742353 0.92669004 0.59578204
0000a0 95 44 e1 3e 2d 3a 25 3f a5 47 55 3f 43 c1 42 be
       0.43997636 0.64541894 0.83312446 -0.19019036
0000b0 70 2e 6b 3c d0 37 22 3f dc ab 34 3e 37 65 4d bd
       0.014354333 0.63366413 0.17643684 -0.050145354
0000c0 b1 bd 82 3e 74 58 42 3f 77 57 3a 3e 0c 94 9d 3e
       0.25535348 0.7591622 0.18197428 0.30777013
