src/ModelClient/models/trained_agents/dqn-smart.pth (torch_old, 721572 bytes, 6 tensors)

fc1.weight f4 [300, 364]
00000000: a00a b53e 31ec 003d ba85 313e 09bf ad3e
00000010: 4f2b 4ebc 7c34 903e 0fec a33e 3e56 d03e
00000020: b09a ff3e ef9f 653e 0dea a13e 1f29 b53e
00000030: ea93 9d3d c157 9b3e df3a 883d 1bf4 ee3e
00000040: d428 bfbd f542 c83e 1429 59bc 71a1 2e3e
00000050: a49b 843e 8a26 f3bd 08a8 c73d 6c80 0e3e
00000060: 7b63 013f 8538 f43e 828a a23e 7a15 b13e
00000070: 8018 d13e 3308 6c3e 901f b73e 6bdf 223f
00000080: cdab 953e 7971 7b3e b61e b13e be81 433e
00000090: bfe1 1d3e 942a b53c bdff 9fbd ebac 2a3f
000000a0: 18ea e93d c46e a23d 9ef8 863e 3ffe 383e
000000b0: a577 053f bb00 8c3e d12a 523e e50a ad3e
000000c0: fb5b 403f d78e f63e 2408 b93e cb8e 0f3d
000000d0: 623c acbd 160f 00be 1fcf c53d 9ee1 863e
000000e0: e46e 903e 24d5 cf3e c74d ef3e 5cae b33e
000000f0: 9ea4 893e 0635 573e c05e f43d 3f44 70bb
00000100: e842 003f e148 f73e 8865 d0bd e66f d63d
00000110: 29e0 bc3e 0245 313e a9fa ca3e 633d 7d3d
00000120: 9fd1 a53e d5a5 943e 285d 993e de9a 6f3e
00000130: 1939 883e ed04 cc3b ca9f 583e c302 8d3e
00000140: 62b1 df3e 3526 17bd 280b 3d3e d38b 553e
00000150: 2387 3d3e e4c4 d43e 5709 ff3e d1d6 cd3e
00000160: 5857 8a3e 235c a93d df3f 0c3e b4e3 123e
00000170: 01c7 083f 7bf3 563e cb10 253d 4f60 db3e
00000180: f40f 7e3e 1544 583e 73ac 203e 7ea0 3d3e
00000190: f57e f83e 9529 0d3e 72f7 ca3e 274e 8c3e
000001a0: 79e4 633c 512a 2e3e cefc 043f 5b3b 873e
000001b0: abc6 9d3d 7892 e13b 34ae 563e d913 c83e
000001c0: a355 723e 1dcf 8f3e 0985 0a3f 87f1 053f
000001d0: a5bc 6c3d 7fd8 ae3e aec3 d83d 92bc 363e
000001e0: eb8b c23e c952 5e3e e320 463e f054 b33e
000001f0: 20a0 0abd d6cb 693e 0264 c53e 96d7 733e
00000200: f2ce a43e 68fd 6b3e 8bb4 8b3d 26fc ed3d
00000210: 2f4e 673e 09e6 903d 8cab 513e d06c 083e
00000220: 90f7 79bd 6b1a 5e3e 5c8e e33c f43e 0e3e
00000230: 52dc 0f3f e192 fd3d 40e8 0abe 75ad d53e
00000240: cca9 913e de97 01be be04 b03d a7b0 863d
00000250: 0c2e 333e f797 9f3e 4ed5 ec3e a0b8 733e
00000260: 669c a13e dac0 a93e 47d4 023f ac7a 613e
00000270: 3233 e03e 88ac 3d3e e1aa 4b3e bede 93bd
00000280: cbbd 353e 3977 ff3c 6c1b 903e 04d2 b53e
00000290: 6d68 143c 2e7d c33d 8518 733e 107a cf3e
000002a0: 023e 083f 1cbc 263e 39d1 9a3e fc15 c8bd
000002b0: c1fb a33d aa8c d33e 7bde 46bd 4c82 acbc
000002c0: 4faa f33d 50f3 5a3e 2381 d33b c9e1 f4bd
000002d0: 7080 453e 2e35 b1bd a1c4 acbc 769c cdbd
000002e0: 11a6 8f3d 5396 b73e 0b0a 853e 60d2 df3e
000002f0: 913b b03e d5f1 1b3e d2d5 923d 5194 163e
00000300: 2d32 663e ac6d 183f 0540 933e b9fe d23e
00000310: 98c8 e73d e957 183f ca6a 183f 1e35 c63e
00000320: 6a4f 893d 61b4 7f3e 49d0 8d3e eee9 e33e
00000330: 59ce 263e 52b2 013f 6e3a ed3e 2c1e da3e
00000340: efa9 66bd 3d2e 12be 194f 91bd a014 9fbd
00000350: 6807 3dbe 6979 c93d 72e2 e53c 8ee5 a3bd
00000360: 7c62 e4bd 2695 cbbd f7f4 d3bc 611f ddbc
00000370: 175f 8f3e 1d5c 4b3e f216 a03d 852e bdbb
00000380: 08bc 5e3e 40c6 113e 0d16 593e 27ae 92bd
00000390: d2ae bbbd 360a 0c3b 6616 05be a055 40b9
000003a0: 6980 8dbd 6f65 d83d 0616 9e3d d343 1b3e
000003b0: 6ff9 c23d a300 413e 278b 5b3d 3b97 213e
000003c0: e420 f13b 469f f3bd cb77 723e b086 d63c
000003d0: ec34 0abe a52f 6d3d 7f81 1fbe 70f5 e1bd
000003e0: 3060 b73e 3f7f 10be 7a99 0b3d 7629 dfbc
000003f0: 9a53 163e b538 27be bbc7 1fbe 25b1 5ebe
0.3535967 0.03147525 0.17336169 0.3393481 -0.012583568 0.28165042 0.32016036 0.40690798
0.49922705 0.22424291 0.3162388 0.35382935 0.07694228 0.30340388 0.06651854 0.46670613
-0.09333959 0.39113584 -0.013254423 0.17053773 0.25899994 -0.11872585 0.09748846 0.13916177
0.5054242 0.4769937 0.31746298 0.34586698 0.40839005 0.23050003 0.35766268 0.6362216
0.29232636 0.24555005 0.34593743 0.19092461 0.15418147 0.02211503 -0.0781245 0.666701
0.11421603 0.07931283 0.26361555 0.18065737 0.5213569 0.27344307 0.20524146 0.33797374
0.7514035 0.48155853 0.36139023 0.035048287 -0.084099546 -0.12505755 0.09658646 0.26344007
0.28209603 0.405923 0.46739027 0.35093963 0.26883405 0.2101632 0.11932135 -0.0036661772
0.5010209 0.4829779 -0.101756155 0.10470562 0.3688977 0.1731148 0.39644364 0.06182612
0.3238649 0.2903277 0.29953885 0.23398921 0.26606062 0.006226173 0.21154705 0.2754117
0.4369002 -0.03690167 0.18461287 0.2085412 0.18508582 0.41556466 0.49811813 0.40202954
0.27019763 0.08269527 0.1369624 0.14344674 0.53428656 0.20991318 0.04029922 0.42846915
0.24810773 0.21119721 0.15690784 0.18518254 0.4853436 0.13785394 0.3964191 0.27403376
0.013909453 0.1700833 0.5194825 0.26412472 0.077039085 0.0068839155 0.2096489 0.39077643
0.2366548 0.28087702 0.54109246 0.52321666 0.057797093 0.34149548 0.10584198 0.17845371
0.37997374 0.21711268 0.19348483 0.3502574 -0.033844113 0.22831663 0.38552862 0.23812708
0.32189137 0.23045886 0.06821545 0.11620359 0.22588418 0.07075126 0.20475596 0.13322759
-0.06102711 0.21689765 0.027777843 0.13891202 0.5619556 0.123815306 -0.13565159 0.417339
0.28449857 -0.12655589 0.085946545 0.065766625 0.17498034 0.31170627 0.4625649 0.23800898
0.31564635 0.33154947 0.5110516 0.22019452 0.4378906 0.18522847 0.19889404 -0.07220219
0.17748182 0.03118478 0.2814592 0.35511792 0.0090581 0.095453605 0.23739822 0.40522814
0.53219616 0.16282696 0.3023775 -0.09769818 0.080070026 0.41318256 -0.048552018 -0.021058224
0.11897718 0.21381879 0.0064546033 -0.119571276 0.19287276 -0.08652721 -0.021089854 -0.10039608
0.070140965 0.35856876 0.25984225 0.4371519 0.34420446 0.1522897 0.07169689 0.14705016
0.22480078 0.59542346 0.2875978 0.41209963 0.11317557 0.5950914 0.5953795 0.387124
0.067046 0.24971153 0.2769797 0.44514412 0.16289653 0.5066272 0.4633364 0.42601144
-0.056314405 -0.14275451 -0.07095165 -0.07767606 -0.18459857 0.0983761 0.02806208 -0.080027685
-0.11151597 -0.09940557 -0.025873644 -0.026992502 0.28002235 0.19859357 0.078168765 -0.005773368
0.21751416 0.14235783 0.21199818 -0.07162123 -0.09164204 0.002136839 -0.12996826 -0.00018342445
-0.06909258 0.10566222 0.077190444 0.15162592 0.09520232 0.18847899 0.053599503 0.15780346
0.007358657 -0.11895613 0.2367851 0.02618727 -0.1349675 0.057906765 -0.15576743 -0.110331416
0.35815573 -0.1411104 0.034081914 -0.02724145 0.14680329 -0.16330226 -0.15603535 -0.21747263

fc1.bias f4 [300]
00000000: 915a 593e 35ca 0f3e cbfb 30be cb14 cbbd
00000010: 30bf 8f3e ee83 bc3e bc5a ca3e fbe2 b23e
00000020: cbc6 3f3f a3e3 a03e e219 8e3f cc08 af3d
00000030: 3f95 db3e e2c6 bf3e 54a8 82be e167 763c
00000040: 3349 a23e 4e59 9bbd f06e aebd b3d7 2e3f
00000050: d034 5b3f 38c4 553e 7957 c13e 932e 403e
00000060: d80a 503e 0c8d c23e c6a7 e93c 792f cc3e
00000070: 3f30 913e 6913 783b 51c6 443e 66f1 d5bd
00000080: 2696 923f 432a 2a3e c7fe a33b ff9e 02be
00000090: 1a8a bdbd e63c 023e 78bf aa3e 1391 153e
000000a0: 9850 da3e 720b 9a3e 347b 17be 2f1b c73e
000000b0: e4c5 60be 0e6b 893e abed 9a3e 5444 163f
000000c0: fa2f 9d3e 0ec5 1dbe 5804 17be eaf5 30be
000000d0: 37c3 873e 8032 993e e3b1 6d3f c416 8f3f
000000e0: 81d2 e13e 20b1 f63d 7bdf 923e 7942 85be
000000f0: c443 91be 12fe 8e3f f234 a33e 97cd 38be
00000100: 230d 953e 9064 40bd 8287 91be 1d09 9dbe
00000110: 7db6 42be a175 b33d 32f0 99bd 3c50 ae3e
00000120: a523 1abe 4a30 9cbd 0b0f b13c 418d cb3e
00000130: 69c0 f7bc c1fe 3e3e 0201 483e 9481 c0bd
00000140: 3ff9 c2bd 37a9 373e 08eb c83e 4d08 0fbe
00000150: 835f 173c 703d 313d fdb8 9c3c e138 8f3e
00000160: bedb d53e 7150 723e 0a51 b23f 70b0 3fbe
00000170: 94bc b53d 6b6a cc3e 8979 dc3e 6170 97be
00000180: 75e4 893e 4b2d 8e3e 19d9 f0bd bea4 03be
00000190: ddaa 0c3e bfb7 7e3e c8d9 d33e b119 113f
000001a0: 99b7 48be ff74 31be ac66 833c 2c8d 533d
000001b0: d721 0b3f 0a80 e13e d5b5 e43e a2e4 9abd
000001c0: 17c9 c33d 21f5 c7be 235f 21be 8fa1 f53e
000001d0: e23d bd3e 07a8 b33d 0334 9c3d e9ce 7b3e
000001e0: 1326 233e 7ebc 313e a309 f83e 426c c33e
000001f0: c01c 283e fe96 913e 4598 723e dea8 58be
00000200: 366e d13e d28f a83e 151e b13e a577 e73e
00000210: b910 af3e 0e8d 9a3e bfbd 8ebe 3e5a 8b3d
00000220: 6b92 a43e ab37 ad3e a907 80be 0484 ea3e
00000230: 657a b0bd b8ba 213e e4c1 d9bc 9f31 21be
00000240: 44cb 6dbe 7449 c73e 3169 09be 64c9 623e
00000250: 9e17 1f3e 5439 313e 33d5 833e 97a6 3fbe
00000260: d998 3d3d 05a2 fe3e 237c bfbd 0e2d 053f
00000270: 8bdd d93e 8738 2dba 12a9 2f3e 79eb d53e
00000280: f3eb 433f 6cfd a13e e4d0 28bd 2cb7 a6bd
00000290: 6fb3 ff3e c5c0 6cbe 778b 8b3e a075 d43e
000002a0: 6640 13be 3cb2 6d3e 25d5 d7bd 70b5 9dbe
000002b0: ee8c bb3e 5dfb ea3e b4bd 283d 3f76 8b3f
000002c0: 321f aabd 3ec9 b13e 99d5 af3e f18b b13e
000002d0: bb78 2dbe 0e76 26be 1c00 42be d8f0 32be
000002e0: 870d c83e febc ef3d c16d 433f 0631 e73e
000002f0: db5b 463e c204 b43d 08b5 a43e 567c 753e
00000300: a99e 8f3e 58ea c83e a563 3abe e1e7 023e
00000310: ebe6 523e f20b 7f3f 50fd 833e 32c1 f03d
00000320: 5b7d b03d 883b 803c d4d9 253c 1d42 dc3d
00000330: ac5d 153e 4d0e 6b3e dede 453d de97 013f
00000340: 9adf 973e ea54 533d 5666 8b3e d607 bebe
00000350: 8e24 d4bc 6e0a 423e a01c 4e3f 2783 6d3e
00000360: c09d 35be 5788 543f 6e19 bcbd 3d53 8c3e
00000370: 0185 e23e d954 af3f 4345 9a3e b685 a23e
00000380: 0c9e 17be 5320 123e edd0 ae3e fafe 4f3f
00000390: bec2 a63e edc5 58bc 5163 483f be0f 1dbe
000003a0: cc54 b73d f5b1 573e c8d9 22be a7ce b5bd
000003b0: addc fb3e b10a 9ebb 400e e03e e2dc c53d
000003c0: ef47 3dbe 13b1 7cbe 5581 46be cd16 7fbe
000003d0: 611f 42bd fdeb 253e e63f b73e baaf b33e
000003e0: 697c 023f 9da7 b3bd 2689 8f3d 9f64 81be
000003f0: ebc8 f63e 1ad8 17be e385 8fbe 4120 b53e
0.21225955 0.1404198 -0.17283551 -0.09916075 0.28075552 0.36819404 0.3952235 0.34938797
0.7491271 0.31423673 1.1101649 0.085466 0.42887303 0.37456423 -0.2551905 0.015039415
0.31696472 -0.07585393 -0.085172534 0.6829788 0.8562746 0.20875633 0.3776205 0.18767767
0.20316637 0.37998235 0.028522383 0.3987997 0.2835712 0.0037853366 0.19216277 -0.10446434
1.1452072 0.16617684 0.005004737 -0.12755965 -0.092548564 0.12718543 0.33349204 0.14606123
0.42639613 0.30086857 -0.14793092 0.38887927 -0.2195049 0.2683949 0.3025945 0.5869801
0.30700666 -0.15407202 -0.14747751 -0.17281309 0.26516125 0.2992134 0.9284956 1.1178823
0.44105914 0.12045503 0.28686127 -0.26027277 -0.28372014 1.1171286 0.31876332 -0.18047176
0.29111585 -0.046970904 -0.28423697 -0.30671015 -0.19014926 0.0876267 -0.07516517 0.3404559
-0.1505266 -0.07626398 0.021613618 0.39756206 -0.030243115 0.18651868 0.19531634 -0.09399715
-0.09520196 0.17935644 0.39241815 -0.1396801 0.00923908 0.043271482 0.019131178 0.27973083
0.41769212 0.23663498 1.3930981 -0.1871965 0.08873859 0.3992494 0.43061474 -0.29577926
0.2693211 0.2776893 -0.11760158 -0.12855813 0.13737054 0.24874781 0.4137709 0.56679827
-0.19601287 -0.17329787 0.016040169 0.051648304 0.5434851 0.44043 0.44669977 -0.075631395
0.09559839 -0.39054206 -0.15758948 0.47974822 0.36961275 0.08772283 0.07627108 0.24590649
0.15932493 0.1735706 0.48444852 0.38168532 0.16417217 0.2843551 0.23690899 -0.21158168
0.40904397 0.32922226 0.34593263 0.4520847 0.34192446 0.3018574 -0.2787914 0.06804322
0.32142958 0.33831534 -0.25005844 0.45803845 -0.08617095 0.15793884 -0.026581712 -0.15741585
-0.23222071 0.38923228 -0.13419034 0.22147137 0.15536353 0.17307025 0.25748596 -0.18715893
0.046288345 0.49732986 -0.09349849 0.52021873 0.42551836 -0.00066078495 0.17154339 0.41781214
0.76531905 0.31638658 -0.04121484 -0.08140406 0.49941584 -0.2312041 0.2725484 0.4149599
-0.14380035 0.23212522 -0.10538701 -0.30802488 0.36630958 0.458949 0.04119654 1.0895461
-0.08306731 0.34723848 0.3434265 0.3467708 -0.16940586 -0.16255972 -0.18945354 -0.17474687
0.3907282 0.11705969 0.76339346 0.4515459 0.19370978 0.0878997 0.32169366 0.23973212
0.28050736 0.3924129 -0.18202074 0.12783767 0.205959 0.996276 0.257792 0.11755599
0.0861766 0.015653387 0.010122735 0.107547976 0.14586514 0.22954674 0.048308246 0.50622356
0.29662782 0.051594652 0.27226514 -0.37115353 -0.025896337 0.18949291 0.8051243 0.23194562
-0.17735958 0.8302054 -0.09184538 0.27407256 0.442421 1.3697768 0.30130967 0.31742638
-0.14806384 0.14270143 0.34143773 0.8124844 0.32570451 -0.013230783 0.78276545 -0.15338036
0.089517206 0.21063979 -0.1590339 -0.088773064 0.491918 -0.004823052 0.43760872 0.09661271
-0.18484472 -0.24676923 -0.19385274 -0.24911042 -0.047393207 0.16203304 0.35790938 0.35095006
0.50971085 -0.08772204 0.07008581 -0.2527208 0.48200163 -0.1482853 -0.28031835 0.3537617

fc2.weight f4 [200, 300]
00000000: 4d25 d73f 5299 b53f f41e ea3f a8ab 0940
00000010: b7fb d23f 6bea 3bbf 6e73 e13f d5b3 c13f
00000020: e694 ab3f f29f c6bf b57a b03f 2b45 f73f
00000030: a1a9 8cbf a145 d3bf 305e 1740 36fa f03f
00000040: 0c26 c8bf 2f64 f43f 3364 0d40 87ba c73f
00000050: 31bd a93f 687f 0040 f4a5 d43f 93b9 d73f
00000060: e101 f33f 0601 babf 1010 f43f 6196 98bf
00000070: edcc 39bf 86ef 0140 b241 e53f c961 0040
00000080: af3d 913f a1ad ce3f e5af 0e40 e33f 0f40
00000090: d67a 0440 3554 d03f 509f 05c0 ffc8 ca3f
000000a0: 5308 b0bf 61ec d6bf 5abd fc3f 1ca5 e2bf
000000b0: 1454 1c40 153b d6bf 9e9c 94bf f6c1 d33f
000000c0: 6d44 b7bf 8a14 0340 8c24 0d40 c10a 0e40
000000d0: de82 cf3f e10c d33f 3032 ad3f eac0 9b3f
000000e0: f7fb c3bf 8bb5 c03f 1cc8 3bbf ac2f eb3f
000000f0: 6714 0940 fa09 8f3f 5db3 cb3f c48e 0d40
00000100: 25e3 66bf d8ba e73f 60f4 1340 3d3c 2840
00000110: 5157 1e40 db45 0740 35b8 0b40 1b5c c5bf
00000120: 81a5 0b40 1684 0540 7de5 0e40 8d56 73bf
00000130: 11a0 1740 1759 d33f 725b df3f 1e99 0c40
00000140: 6053 0c40 770f fc3f 9ee3 f03f 3650 0e40
00000150: b6fc f53f 53ea f83f 3702 f43f f4d4 98bf
00000160: e6b4 993f 2b11 e33f 382a 783f 5d9b 0840
00000170: b6d2 e03f 0cd9 05c0 4954 bcbf f23d 1d40
00000180: 406e dbbf fd79 0d40 6278 0e40 6e69 0640
00000190: f3cf cb3f 4c42 93bf 3fbb df3f eccc ce3f
000001a0: 46aa 3540 c4a1 1940 858e f93f d2e3 fb3f
000001b0: 8601 8fbf 92af c43f 014c 2bbf 74e7 1140
000001c0: eff7 cb3f e434 4640 6804 0340 67bd 0dc0
000001d0: 5200 a2bf df95 e53f 9f8b e03f 253a df3f
000001e0: d440 ff3f 7be3 0140 bc1e bc3f 3e7d 5ebf
000001f0: 00e7 ee3f dec7 53bf 2435 dc3f 66fd 1240
00000200: 21c7 d3bf 8e90 c73f 1c5f 6bbf 8151 7bbf
00000210: c477 a2bf fcb1 13c0 b20e 2c40 4a7e f83f
00000220: f401 98bf 889b a4bf d8d6 1c40 b0b7 e4bf
00000230: 0442 1240 e13a d93f ec5a ee3f a6f4 1340
00000240: 43a9 2540 5133 b7bf 53ac 1140 e21f f43f
00000250: d6de f53f a70d d73f be51 bd3f e232 0140
00000260: b2af 0c40 7122 d23f 2763 0640 8194 85be
00000270: c65a cc3f ca51 0b40 9a74 c83f a533 a9bf
00000280: fb69 bd3f 862a 59bf fbf7 df3f e234 0a40
00000290: a9e6 9abf ac27 4040 2f9c ddbf 7409 c9bf
000002a0: a87d ba3f 051e 0e40 d0c9 0b40 4477 1640
000002b0: 6168 f9bf 775a 5dbf 605c 0440 6f9f 4c3f
000002c0: c8b7 0840 2668 aabf 5fc0 d83f e10c 8bbf
000002d0: fc64 0a40 f5eb d73f 5ff1 0f40 4035 0540
000002e0: 62da 83bf 9e4a ab3f 23ef a53f a1e7 83be
000002f0: 9b5c c13f c43b f73f a19d b0bf ccda 0040
00000300: d9ec 92bf da0a c1bf dcdf 0040 55c8 b9bf
00000310: e6da dd3f fad9 a03f 2aad fa3f 10ce da3f
00000320: 8e7e d03f d037 e83f 328b 1240 49e6 e93f
00000330: 2bc8 0340 a0e4 d03f be13 0240 d5da 5dbf
00000340: 0fc9 84bf 6d5f 0e40 a3d3 83bf 37a3 3840
00000350: 0f29 1440 58fa ad3f 3e69 c93f dbf9 d13f
00000360: d50e 1340 208c b93f b283 0c40 8c80 74bf
00000370: fb8e f73f f355 8e3f 7e1e c5bf 26e5 ea3f
00000380: 362a 1540 812b de3f bc3d a4bf 1dcb 973f
00000390: a5d5 b7bf d9e8 0540 355a a53f 4167 1d40
000003a0: 0e3b 0940 f4af ec3f 367b 0540 0d8a 0340
000003b0: 1455 c33f b9eb ff3f fb63 72bf 28fa de3f
000003c0: b84e 0a40 9220 1040 0f54 1240 2a9b 2240
000003d0: 765c 0440 2be6 e53f f36b c43f c714 cc3f
000003e0: fff8 e13f 9698 ed3f 7a19 91bf e6f0 1e40
000003f0: 4772 c23f 99ed 1240 9923 1e40 4baf 9dbf
1.6808258 1.4187415 1.8290696 2.151102 1.6483067 -0.7340457 1.7613351 1.5133005
1.3404815 -1.5517561 1.3787447 1.9317983 -1.0989267 -1.6505624 2.3651237 1.8826358
-1.5636611 1.9093074 2.2092407 1.5603799 1.3260862 2.0077763 1.6613145 1.6853508
1.8984948 -1.4531562 1.9067402 -1.1920892 -0.72578317 2.0302444 1.7910674 2.0059683
1.1346949 1.6146737 2.2294858 2.2382743 2.0699973 1.6275698 -2.0878487 1.5842589
-1.375254 -1.6790887 1.9745286 -1.7706637 2.4426317 -1.673678 -1.1610296 1.6543567
-1.4317757 2.0481286 2.2053556 2.2194064 1.6211812 1.6488305 1.3530941 1.2168248
-1.5311269 1.5055403 -0.7335222 1.8373923 2.1418703 1.117492 1.5914112 2.2118387
-0.90190345 1.8103895 2.3117905 2.6286767 2.4740794 2.1136386 2.183118 -1.5418733
2.1819766 2.086187 2.2327569 -0.9505394 2.3691447 1.6511563 1.7449782 2.1968455
2.1925888 1.969222 1.8819463 2.2236457 1.9217746 1.944651 1.9063176 -1.1939988
1.2008331 1.7739614 0.9693942 2.1344826 1.7564304 -2.0913725 -1.4713222 2.4569058
-1.7143021 2.2105706 2.2260976 2.100185 1.5922836 -1.1504607 1.7479018 1.6156287
2.8385177 2.4004984 1.9496619 1.96789 -1.117234 1.536608 -0.6691285 2.2797518
1.5935038 3.0969782 2.047144 -2.2146852 -1.2656348 1.7936362 1.7542609 1.7439619
1.9941659 2.0295093 1.4696879 -0.86909854 1.8664246 -0.8272685 1.7203717 2.2967162
-1.6545144 1.559099 -0.91942 -0.9817124 -1.26928 -2.3077383 2.688397 1.941354
-1.1875596 -1.2859964 2.450613 -1.7868557 2.2852793 1.6971093 1.8621497 2.3118072
2.588456 -1.4312536 2.2761428 1.907223 1.9208629 1.6801041 1.4790571 2.0187306
2.1982236 1.6416761 2.0998018 -0.26089862 1.5965202 2.176867 1.5660584 -1.3218886
1.4797968 -0.8483051 1.7497553 2.1594777 -1.2101642 3.0024214 -1.7313288 -1.570601
1.4569597 2.2205822 2.1841927 2.3510294 -1.9484979 -0.86466163 2.0681381 0.79930776
2.136217 -1.3313034 1.6933707 -1.0863305 2.1624136 1.6868883 2.2491071 2.0813751
-1.030102 1.3382146 1.2963604 -0.25762656 1.5106386 1.9315114 -1.3798105 2.0133543
-1.147853 -1.5081437 2.0136633 -1.4514261 1.7332428 1.2566521 1.9584095 1.7094135
1.6288621 1.8142033 2.2897458 1.8273402 2.0590923 1.6319771 2.032455 -0.86662036
-1.0373858 2.2245743 -1.0298961 2.8849618 2.315006 1.3592024 1.5735242 1.6404375
2.2977803 1.4495888 2.195538 -0.95508647 1.9340509 1.111998 -1.539993 1.835118
2.3307014 1.7357026 -1.283134 1.185886 -1.4362074 2.092337 1.2918154 2.459427
2.1442294 1.8491197 2.0856452 2.055301 1.5260339 1.9993812 -0.9468381 1.7420092
2.1610546 2.251988 2.2863805 2.5407205 2.0681434 1.7960867 1.5345443 1.5943841
1.7654113 1.856219 -1.13359 2.4834533 1.5191125 2.2957518 2.4709227 -1.231912

fc2.bias f4 [200]
00000000: ea6d cc3f 265b a03f afbe bb3f 4565 da3f
00000010: b104 88be 3421 be3f 1a8f dd3f b8e5 ad3f
00000020: 71a2 bd3f 20ae c03f b166 b53f 2e8c e33f
00000030: 4466 af3f f24c cb3f a5aa c33f 5afd f33f
00000040: 4c87 d23f 5423 ed3f 3c5e dc3f e4e7 803f
00000050: 8886 be3f 4c2c d03f 309f cd3f b036 ba3f
00000060: 19a1 e13f b0b2 d63f 0663 38bc 3a8f cb3f
00000070: d048 d13f 2e89 ce3f 5a03 c23f 0d29 c83f
00000080: 1e05 d03f 522c 12bd 54b8 c03f 910a dc3f
00000090: 67de d83f 2098 d93f cc26 b93f 5ddc d33f
000000a0: d340 d73f a546 603f 54a8 20be a26b d43f
000000b0: 7c48 bc3f 55f7 c4be 6a80 813f fbdc c63f
000000c0: 82f1 ca3f 863a d83f 86ae ca3f aaaf 3e3f
000000d0: 08f4 f53e aa6a e53f 530a e33f fea7 c73f
000000e0: b1c1 bd3f b3fe d13f 7065 d03f d707 e03f
000000f0: 1022 d93f 5bcd b33f f85a e43f c7db cf3f
00000100: 409f fb3f 3067 db3f fee7 51be a77a 52be
00000110: d4ed eb3f 7570 d83f a9cf c33f 57b6 ca3f
00000120: 92ee d73f 0324 fd3f 3a73 b73f 8933 a73f
00000130: 7e33 c53f 29c8 abbe 65c0 0e3f e989 eb3f
00000140: 51eb c33f 4a07 30be 642a c33f adef d93f
00000150: b347 88be b11a cd3f 4631 b23f 3c7d d23f
00000160: 5ec0 cc3f cbf2 dc3f 4a17 d73f b810 d23f
00000170: dcab da3f 9cb2 a93f 4959 c0bd a892 9a3f
00000180: ec0c d23f 14b0 6ebe e082 d43f ef37 df3f
00000190: 5aa3 d03f fde7 5fbe 1d0f e03f bc9d cd3f
000001a0: bee9 d93f 66e3 cd3f 5755 2a3b c3ed d63f
000001b0: 6a1f df3f 6f17 d73f 005b af3f 52d4 d93f
000001c0: c3a1 f13d 0905 e33f e249 dc3f 0d28 e73f
000001d0: f1b0 90be 738c e13f 63f1 c6be 4475 e23f
000001e0: 6a08 d33f abe4 c33f 190c f03f 150f dc3f
000001f0: 98d6 cc3f 3acc de3f 6b99 d23f 06e7 bc3f
00000200: 641f 80be ae32 b03f 06cd d03f cd04 e03f
00000210: 0464 e53f a51e 0dbe e379 f03f 2134 d63f
00000220: a726 d93f 83f9 cc3f 28f9 e33f 1ac3 d63f
00000230: aa2e d83f aa16 d23f 034a 98be 159d 74be
00000240: fbdf d23f d19e 69be 89df d53f 183b d63f
00000250: 395e c83f 6cca 81be 74cd c33f fd0d e03f
00000260: 665d 5cbe 2b24 a5be 5ebd bf3f 4c30 e93f
00000270: d86f e83f da6f e13f 0e3d cd3f 16bf d83f
00000280: 0529 a23f 5f91 d43f 3076 e63f 1ff3 23be
00000290: 6483 b33f d22a c13f 89f9 d53f f729 e33f
000002a0: 890d d63f f053 d03f 1b51 d63f 6670 cc3f
000002b0: 6e26 ee3f c07b d03f 7738 d73f be68 9cbe
000002c0: 7534 70be 8698 febd 335d c03f 6a6a 19be
000002d0: 842e f03f 17a0 d73f e7fc d13f 4fa1 df3f
000002e0: 933a 5dbe e493 ce3f 7b31 823d e486 e73f
000002f0: ab32 bf3f 05b1 af3f b0dd ccbd f1ae 7bbe
00000300: 445a e83f f552 b93f 94a6 c13f 4498 c33f
00000310: 4e17 bf3f 197a c63f b72b cd3f 8439 bb3f
1.5971043 1.2527816 1.4667567 1.7062155 -0.2656608 1.4853883 1.7309296 1.358573
1.4815198 1.5053139 1.4171964 1.7777154 1.3703084 1.5882857 1.5286452 1.9061692
1.6447539 1.8526406 1.7216258 1.0070767 1.4884806 1.6263518 1.6064205 1.4547939
1.7627288 1.6773281 -0.011254078 1.5903084 1.6350346 1.6135614 1.5157273 1.5637528
1.6251562 -0.0356868 1.5056252 1.7190725 1.6942872 1.699955 1.4464965 1.6551625
1.6816658 0.87607795 -0.15689212 1.6595347 1.470962 -0.3846995 1.0117314 1.5536188
1.5854952 1.689286 1.583451 0.7448679 0.48037744 1.7923176 1.7737526 1.5598142
1.4824735 1.6405853 1.6280956 1.7502393 1.696352 1.4047045 1.7840261 1.6238946
1.9657974 1.7140865 -0.20498654 -0.205546 1.8431954 1.6909319 1.5297748 1.5836896
1.6869681 1.9776615 1.4332039 1.3062602 1.5406339 -0.33551148 0.5576232 1.8401462
1.5306188 -0.1719028 1.5247312 1.7026268 -0.26617202 1.602377 1.3921287 1.6444468
1.5996206 1.7261595 1.6803982 1.6411352 1.7083697 1.3257632 -0.0939203 1.2076006
1.6410193 -0.23309356 1.660244 1.7438945 1.6299851 -0.2186584 1.7504612 1.6063762
1.7024457 1.6085021 0.0025990808 1.6791309 1.7431462 1.6804026 1.3699646 1.701792
0.11798432 1.7735912 1.7210047 1.8059098 -0.28259996 1.7620987 -0.38856038 1.7692037
1.6486943 1.5304159 1.8753692 1.7192103 1.6002989 1.7406075 1.645307 1.4758003
-0.2502395 1.3765466 1.6312568 1.7501465 1.7921147 -0.13781221 1.8787197 1.6734658
1.6964921 1.6013645 1.7810411 1.677829 1.6889241 1.6413167 -0.29743966 -0.23888047
1.6474603 -0.2281449 1.6708843 1.6736784 1.5653754 -0.25349748 1.5297074 1.7504269
-0.21520004 -0.32254156 1.4979665 1.8217864 1.8159132 1.7612259 1.6034257 1.6933315
1.2668768 1.6606864 1.8004818 -0.16010712 1.4024472 1.5091193 1.6716777 1.7747182
1.6722881 1.6275616 1.6743501 1.5971801 1.8605478 1.6287766 1.6814107 -0.30548662
-0.23457511 -0.12431435 1.5028442 -0.14982 1.8764195 1.684573 1.6405305 1.7471102
-0.21604376 1.6138883 0.06357094 1.808804 1.4937338 1.3725897 -0.10003221 -0.24578454
1.8152547 1.4478441 1.5128961 1.5280843 1.4928987 1.5506011 1.6028966 1.4626927

fc3.weight f4 [52, 200]
00000000: d540 353f 5da7 51be 30ab 573f 49c6 543f
00000010: 8bd7 c1bf 0a0a 143f 0db9 0c3f 6d2c 023f
00000020: 2249 0f3f faa3 3e3f 1a4d 703f ba32 153f
00000030: fcec 873f b1ec 213f 0d6c f23e a16d 313f
00000040: 2761 123f 314e 0f3f 6016 3b3f a3a2 823e
00000050: fcb0 a73e 7f27 263f 8ab7 ec3e d81c 243f
00000060: 9dd1 f83e 5282 d73e a861 64bf 2767 363f
00000070: abe7 273f ecfb 123f 0c17 1b3f 345a 0e3f
00000080: f7cc 593f dd77 04bf 5208 583f 18e9 293f
00000090: 9d24 1a3f c32b 133f f992 5d3f d448 203f
000000a0: c7ac 0d3f 5b0b 27bd b751 363d b7e4 fb3e
000000b0: 36b8 013f 48d9 babf dd65 bcbe 0ebf 983e
000000c0: 374e e03e 0244 443f 12c3 3d3f 5e92 96bf
000000d0: 6f01 083f 95af 073f 2b47 de3e cbad 3b3f
000000e0: 3e8a 0c3f fc36 2f3f 96e9 263f ca9e fb3e
000000f0: 2236 303f 358b 503f 2dab ec3e 7290 053f
00000100: b6e2 0e3f 14f3 373f ffc6 c7bf 6923 c5bf
00000110: 9d5f df3e e14d 343f c88b dc3e 1747 fd3e
00000120: 3247 313f 35ed 153f fa1a bb3e c9ec 393f
00000130: a18f e13e 979d 85bf 85ec 713f 227e 093f
00000140: c05b 353f 1898 583e a364 0b3f 75a2 1f3f
00000150: 52d5 20bf 0ba5 233f 6daa 883e 9a5e ee3e
00000160: 5393 c93e dfce 193f 5a2c 063f 1ca2 2d3f
00000170: ca51 1a3f dd76 6f3f d820 91bf c3bc 3f3f
00000180: 864e cc3e 1273 16bf b7e5 1e3f 881f 353f
00000190: fc67 013f da39 76bf 6803 d83e 0c19 df3e
000001a0: c069 313f 1940 423f cb9f 8ebf 60ac 583f
000001b0: 2029 4a3f d450 273f 6444 163f 27d3 4b3f
000001c0: b36f 86bf 3c11 343f 6e28 023f e096 1d3f
000001d0: 2baa bcbf 3817 363f e06c bcbf 75ed 053f
000001e0: 07f8 033f f816 9e3e 89b2 1d3f dcc2 253f
000001f0: 9843 333f 0ca8 2e3f 8fb2 063f 465a 383f
00000200: 0654 3fbe f9e4 b63e c723 363f f237 193f
00000210: 4a0c 0a3f 32f0 85bf d08e 343f 81fb 0f3f
00000220: 37d2 123f 680e 263f f997 f53e 6eb7 063f
00000230: 2adc 0a3f d9a7 033f 800d 18bf e90b e3bf
00000240: 5d56 fa3e abfb 473e 5ea3 4b3f 9a71 433f
00000250: cb3d fd3e 8d1d aebf cfdd 323f 635d bb3e
00000260: cfa9 8cbf b916 c0bf ebaa 403f abf5 543f
00000270: 4ece 313f 0c93 203f 44bf 183f da13 003f
00000280: cd14 863f fd76 043f 20f7 2d3f c1ad f63e
00000290: 506a 0f3f 3655 273f 57a1 1a3f 1af7 0d3f
000002a0: 61e0 1d3f 3f47 df3e f223 2e3f d2ff 413f
000002b0: a411 2c3f e3af 323f ce7f 183f 796f 45bf
000002c0: 542b aabf 1a94 b1bf 7816 d23e 2168 9bbf
000002d0: 4c72 393f 7957 b63e f69b ac3e 1005 cf3e
000002e0: 0389 acbf be99 433f 6780 62bf d630 193f
000002f0: 031c f23e 2490 533f 41ed 0dc0 5b11 f4be
00000300: a88f 073f 50f9 ee3e 9bea 643f 0f49 533f
00000310: b16b f03e e38e 953e d4cd 5b3f da41 653f
00000320: 3a14 eb3e 2e9e 373f 3c38 393f 7d43 103f
00000330: 4aee 62bf 4d01 d63e effc 2b3f 1996 553e
00000340: 7b5c 1f3f c95f d73e 5b15 553f 9067 2e3f
00000350: 6a15 a53f f827 593f 6fd5 9b3e 5a57 013f
00000360: ae60 2c3f 7f10 323f cc2f 3c3f 1cc1 713e
00000370: a45d 173f 0b19 143f 4a1f 2e3f d12d 2b3f
00000380: e01e e33e a60d 273f dfa5 7bbf cfd2 193f
00000390: 8b45 053f 3dd6 273f b171 283f 23d7 2d3f
000003a0: 62fa e03e ec44 b0bf 9b61 3b3f 3243 183f
000003b0: 3cf2 f23e eef6 f23e 45b6 3f3f 9487 da3e
000003c0: f572 f63e 18c9 173e 89a2 babd bf31 693f
000003d0: e927 313f f7e3 b2be 6c7d f63d da2b a53e
000003e0: dd78 083f 90db 033f 6d21 003f 3b5d 99bf
000003f0: ac83 33bf dd02 403e ed40 e43e 0d42 c63e
0.7080205 -0.20474 0.84245586 0.8311506 -1.5143903 0.5782782 0.54969865 0.5084904
0.55970967 0.7446896 0.9386765 0.5828053 1.0619197 0.6325179 0.4734806 0.69307905
0.5717949 0.55978686 0.73081017 0.25514707 0.32752216 0.64904016 0.4623378 0.6410651
0.48597422 0.42091614 -0.8921151 0.7125115 0.6558787 0.5741565 0.6058204 0.5560639
0.85078377 -0.51745397 0.84387696 0.663713 0.6021212 0.5748865 0.8655239 0.62611127
0.5534176 -0.040782314 0.044511523 0.49197933 0.5067171 -1.4597559 -0.36796466 0.29833263
0.43809673 0.7666627 0.7412578 -1.1763418 0.5312719 0.5300229 0.43413672 0.7331206
0.5489844 0.68443274 0.65200174 0.49144584 0.688326 0.81462413 0.46224347 0.5217353
0.55814683 0.7185528 -1.5607604 -1.5401431 0.43627635 0.70431334 0.43075395 0.494683
0.6924926 0.58565074 0.3654402 0.7262693 0.44054893 -1.0438718 0.94501525 0.5370809
0.70843124 0.21151769 0.54450434 0.62357265 -0.628255 0.6392371 0.26692525 0.4655655
0.39370212 0.60081285 0.52411425 0.67825484 0.6028105 0.93540746 -1.1338148 0.748974
0.3990366 -0.58769333 0.6206927 0.7075124 0.5054929 -0.96182024 0.421901 0.43573797
0.69301987 0.75879055 -1.1142515 0.84638023 0.78969 0.6535771 0.58698106 0.7961907
-1.0502838 0.703388 0.5084294 0.6155834 -1.4739431 0.7112918 -1.4720726 0.52315456
0.51550335 0.308769 0.6160055 0.64750457 0.70025015 0.6822517 0.5261621 0.72012746
-0.18684396 0.35721567 0.7114834 0.5985099 0.53925 -1.0463927 0.70530415 0.5624314
0.5735201 0.6486573 0.47967508 0.5262364 0.54242194 0.5142799 -0.593956 -1.773801
0.48894015 0.19529597 0.79546154 0.7634522 0.49461207 -1.3602768 0.69869703 0.36594686
-1.0989321 -1.5006934 0.752608 0.8318736 0.6945542 0.62724376 0.5966685 0.5003029
1.0475098 0.5174406 0.6795521 0.4817944 0.56021595 0.65364397 0.60402435 0.5545517
0.616705 0.43609044 0.680236 0.75780976 0.6721442 0.6979963 0.59570014 -0.7712322
-1.3294473 -1.3873322 0.41032767 -1.2141153 0.7244003 0.3561361 0.3371274 0.4043355
-1.3479313 0.76406467 -0.88477176 0.5984014 0.47286996 0.82641816 -2.2176058 -0.4766949
0.5295358 0.46674585 0.8942048 0.82533354 0.46957162 0.29210576 0.85860944 0.89553607
0.4591387 0.7172574 0.7235143 0.5635298 -0.8864485 0.41797867 0.6718282 0.20858039
0.6225049 0.42065266 0.8323571 0.68126774 1.289716 0.8482661 0.30436274 0.5052391
0.6733502 0.6955642 0.7351043 0.23608822 0.5912726 0.5785071 0.68016493 0.66866785
0.44359493 0.652552 -0.98299974 0.60087293 0.5205924 0.65561277 0.6579848 0.679064
0.43941027 -1.3771033 0.7319581 0.5947753 0.47450435 0.47454017 0.74887496 0.42681563
0.4813458 0.14822805 -0.09113032 0.9109153 0.69201523 -0.34939548 0.12035641 0.3226002
0.5330942 0.515069 0.50051004 -1.1981577 -0.7012279 0.18751092 0.44580784 0.38722268

fc3.bias f4 [52]
00000000: 629a 103f c493 cd3e a582 f63e 0e69 f53e
00000010: 27f2 b23e 8517 f13e 5c21 f43e c59d bb3e
00000020: 3470 b23e a789 0b3f 265b 303f 3054 393e
00000030: 9910 94bd 8e15 1c3f 1744 453f 7dc4 ab3d
00000040: 5977 c23e c53d 21bd cdc8 433f 644e 503f
00000050: f3eb 4abd 0e33 363f f7c6 1a3f 6f0f 423f
00000060: 7470 50bd bf99 cc3e 9a98 08bd 6a6e a13e
00000070: 9261 a53e 91ae 613f a748 103f b7a8 163f
00000080: 1730 1ebd 72dc 9a3e 747d 173f 88c9 7dbd
00000090: 6c72 ea3e b5bf 413f dfe8 713f e5de 28bd
000000a0: cb1f 523f 086f 763f f48a 743e 6404 123f
000000b0: 6f48 c3bb d829 cc3e d3fa bf3e 1e07 9d3e
000000c0: ee1c a13e 3d65 f4bd b467 47bb 465f 253f
0.5648557 0.401518 0.4814655 0.47931713 0.34950373 0.47088256 0.476817 0.36643806
0.3485123 0.54506916 0.6888908 0.18098521 -0.07229728 0.6097039 0.7705702 0.083870865
0.3798168 -0.03936555 0.7647827 0.81369615 -0.049541425 0.71171653 0.60459846 0.758048
-0.050888494 0.3996105 -0.033348657 0.31529552 0.32301003 0.8815699 0.5636086 0.5885119
-0.03862008 0.3024631 0.591758 -0.061959773 0.45790422 0.75683147 0.9449596 -0.041228194
0.8207976 0.9626317 0.23881131 0.5703795 -0.0059595625 0.39875674 0.3749605 0.30669492
0.31467384 -0.11933372 -0.0030426802 0.645985
